interspeech/Ear_EEG/analysis/python/EAR_code/model/64_pNB_EAR_STANet/sb0/fold0.ckpt (torch, 12270 bytes, 12 tensors)

conv1.weight f4 [1, 1, 64, 1]
000000 ad 3b 01 3c 75 37 a2 3d b8 f1 e6 3d 7e ee cb bd
       0.007887763 0.07920734 0.11276573 -0.09957598
000010 c9 3d ae bd f1 54 16 bd f5 47 8d bd 71 f5 fe 3c
       -0.08507878 -0.0367021 -0.0689849 0.031122895
000020 00 c2 47 bb 06 10 88 3d eb f2 b7 bd f1 4b 1e 3c
       -0.0030480623 0.06643681 -0.0898188 0.0096616605
000030 bc 1f a9 bd 63 f8 86 3d 90 a6 ec 3d 67 62 d2 bc
       -0.08258006 0.06590345 0.11555207 -0.025681688
000040 00 fd 74 bd b0 af c6 3d bb b1 8c 3d 2a 68 0c 3d
       -0.059811592 0.097014785 0.06869837 0.034279026
000050 91 79 cb 3d e6 cd cc 3d 0b c7 14 3d 14 bd 29 3d
       0.09935296 0.100002095 0.036322635 0.041440085
000060 dd 00 8d bd 24 68 38 bb e4 d6 8d bd ee aa 97 3d
       -0.0688493 -0.0028138245 -0.06925753 0.07405649
000070 cd 7c dc bd 39 22 d8 bd 2f bf 34 bd 5d f7 de bd
       -0.10765991 -0.105534025 -0.04412764 -0.108870246
000080 83 04 ed 3d 69 e1 45 3d 01 c0 55 3d 4b ca 12 bc
       0.11573126 0.04831067 0.052185062 -0.008959363
000090 98 4f 86 3c d7 80 9a bd 52 a4 19 bd d9 c0 8d 3c
       0.016395375 -0.075441055 -0.037510224 0.017303871
0000a0 94 1f ea bd 1a 80 55 bc 52 c2 f9 bb 44 e9 7e 3d
       -0.11431804 -0.01303103 -0.0076220417 0.06223418
0000b0 e1 18 f3 3d c4 a4 70 3b 7c 7b 05 b9 b0 a0 02 3e
       0.1186998 0.0036719302 -0.0001272987 0.1275661
0000c0 6a a5 95 bd d5 94 f4 3c a0 62 1e 3d 83 e8 8d bd
       -0.07306941 0.029856125 0.038668275 -0.06929114
0000d0 52 9f 46 bd 54 6d c4 3c 0d 1a 66 bd d9 05 3c bc
       -0.048491783 0.023977913 -0.056177188 -0.011476004
0000e0 c3 0c d6 3d 1f 01 95 bc 6e f2 85 3d b6 67 cc 3d
       0.10451653 -0.018189011 0.065403804 0.09980719
0000f0 f2 b8 9c bd d1 97 6a bc a8 77 13 bc 5a ba e6 bd
       -0.07652463 -0.014318422 -0.009000696 -0.112660125

linear1.weight f4 [8, 20]
000000 a6 d7 3b 3e 2b 08 4a be 12 36 03 3e 32 c5 09 be
       0.18343982 -0.19729678 0.12813595 -0.1345413
000010 20 93 1d bd 9a 33 4e be 1b ef 72 3d 4c 37 20 3e
       -0.038470387 -0.20136872 0.05931006 0.15646094
000020 89 8d f5 bc 51 eb b9 bd 9e 35 0c be 6c a9 53 3e
       -0.029974716 -0.09078086 -0.13692328 0.20670098
000030 7b a3 93 bd 42 89 05 3e a4 83 bf bd 2d 5d 31 3c
       -0.07208916 0.13040641 -0.0935128 0.0108254375
000040 e6 ff aa 3c eb 8f 47 bc b6 56 41 be 23 46 9f 3d
       0.020873975 -0.012180309 -0.18880734 0.077770494
000050 76 fc e0 3d 94 3c 7f bd c6 a4 40 3e fb c7 f4 bb
       0.10985653 -0.06231363 0.18812856 -0.0074701286
000060 36 7a cc bd 9c 78 92 bd 2a c0 03 bd 27 20 3b 3d
       -0.099842474 -0.07151911 -0.032165684 0.04568496
000070 3b 32 2a be cf ef 00 be 16 cb 21 be 1b e5 94 ba
       -0.16620724 -0.1259148 -0.15800127 -0.0011359783
000080 41 d7 34 bd 29 50 60 be 57 e5 1b 3d 82 c8 fa bd
       -0.044150595 -0.21905579 0.038060512 -0.12245275
000090 8f 3d 4e 3c 6b 1f 06 bd fa 17 bd bd 07 cb 28 be
       0.012587919 -0.032744806 -0.09233089 -0.16483699
0000a0 5a 26 cb 3d 71 dd 52 bd f7 7d 24 3e 4f 6d 53 3e
       0.09919424 -0.051480714 0.16063677 0.20647167
0000b0 0d 7e 20 3d 3e 5a 3d bd 9d a9 f7 3c b2 c8 53 3e
       0.03918271 -0.04622864 0.030232245 0.20682028
0000c0 ed a3 26 be c0 dc da 3d 62 9f 3c be c8 1a 33 3e
       -0.1627347 0.10686636 -0.18420175 0.17490685
0000d0 22 cd 02 3e 63 90 42 3e 06 3e 30 bd 72 da ff 3d
       0.12773564 0.19000392 -0.0430279 0.12492837
0000e0 ab 5f 33 be 87 fc 40 be 71 78 2c be da 4b 27 3e
       -0.17516963 -0.18846332 -0.1684282 0.16337529
0000f0 39 90 b6 3d 47 a6 9a bd e7 04 18 3e 77 35 05 be
       0.08914227 -0.07551246 0.1484562 -0.13008676
000100 07 d7 d9 3d 0a 79 e7 3d 52 b5 81 3d c5 69 1b be
       0.10636716 0.11302383 0.06333412 -0.15177067
000110 97 26 3f 3e 2b d4 03 3e 13 a5 71 bd a6 eb 5e 3e
       0.18667065 0.12873904 -0.058995318 0.2176958
000120 b3 e6 11 be 61 95 cf 3d 9b 59 fb 3d 71 46 93 bd
       -0.14248161 0.10135914 0.1227295 -0.0719117
000130 16 82 3d be 7d 01 7b bd 67 24 2a be d4 54 26 be
       -0.18506655 -0.061280716 -0.16615449 -0.16243297
000140 dd 15 1d bd 29 60 9d bd 35 71 8c bd 32 c1 e1 3d
       -0.03835093 -0.07684357 -0.0685753 0.11023177
000150 d8 a6 3c 3e 4b 10 73 3c 43 8d a4 bc 59 6a 4f 3d
       0.18423021 0.0148354275 -0.02008689 0.05063853
000160 40 22 a7 bc 9d f4 b4 3c c0 a1 f3 3d db 3e c3 bd
       -0.020402074 0.022089297 0.11896086 -0.09533473
000170 55 f4 b8 3d 2c 4c db 3c b0 45 2d 3c 8d 95 3c 3e
       0.09030978 0.02676972 0.010575697 0.18416424
000180 b6 98 81 bd 8f 5d 07 be 5b 57 26 be 33 d6 3c 3d
       -0.063279554 -0.13219284 -0.16244261 0.046102714
000190 d2 43 ca 3c 8e 42 f3 bd 04 f2 99 bd 61 8d 2d be
       0.024690542 -0.11877929 -0.07516864 -0.16948463
0001a0 a5 7d b5 3a 03 9f 6d bd 2b 71 d3 bd 44 16 17 3e
       0.0013846649 -0.058012974 -0.103243195 0.14754587
0001b0 4b 38 70 3d c4 45 38 be 62 5a 2b 3e 73 66 55 3e
       0.058647435 -0.17995363 0.16733697 0.20839863
0001c0 12 45 ea bd d8 62 35 3e 07 1a 2d bd 38 98 48 3e
       -0.11438955 0.17713487 -0.04226115 0.19589317
0001d0 9e e0 36 3e 5d ff cd 3d 9b 3b 44 3e a4 1d 00 3e
       0.17859122 0.10058472 0.19163363 0.12511307
0001e0 8e f6 1a bd 17 6c f2 3d 0c 3a 4c 3e 27 53 ee 3d
       -0.03783279 0.11837023 0.19944018 0.11636954
0001f0 07 91 82 bb a2 5c 11 be f1 74 0a 3e 3c 8a 30 bd
       -0.0039845738 -0.14195493 0.13521172 -0.04310058
000200 88 a6 39 be 52 e3 23 3e 65 3b ab bd f4 b3 18 3e
       -0.18129933 0.16004685 -0.08360938 0.14912397
000210 c5 c6 44 bd 03 f3 7c bd 70 ef 2d 3e 65 aa 2b be
       -0.048041124 -0.06175519 0.1698587 -0.16764219
000220 fd 6a ae bd d4 58 57 3e 6e c1 2e be fb fd b5 bd
       -0.085165 0.21029979 -0.17065975 -0.088863336
000230 e3 8c 12 be 6a ac 1b 3e fa 82 b8 bd 6d 9e d4 bd
       -0.14311557 0.1520249 -0.09009357 -0.1038178
000240 5d ca 02 be 6f 0d d8 bc bb 96 91 bc 0e 52 98 bd
       -0.12772508 -0.026373593 -0.01777207 -0.07437526
000250 38 73 63 be 7e d7 0c 3d 19 b3 05 be 40 9b 20 3e
       -0.22211921 0.034385197 -0.13056602 0.15684223
000260 e6 be 1a bd 45 77 19 3e a1 af c9 bb c1 ea c8 bd
       -0.03777971 0.14986904 -0.00615497 -0.09810401
000270 1a b2 16 3e 7d 5c 48 be 9f 33 39 be ec 4f 25 3d
       0.14716378 -0.19566531 -0.18086098 0.040359423

linear1.bias f4 [8]
000000 f8 8f 89 3b bd c6 01 3e b7 a8 27 3e 70 de e9 bd
       0.0041980706 0.12673469 0.16372953 -0.1141938
000010 49 79 07 3d 26 a1 2a be 02 c7 3a 3e f7 6c ae 3d
       0.03307465 -0.16663036 0.18239978 0.08516877

linear2.weight f4 [20, 8]
000000 0d ad ac be 5b ba 63 3e 2d b2 cc bd 21 fe 1c be
       -0.33725777 0.22239058 -0.09994922 -0.15331317
000010 1b 67 4a bc f1 83 41 3c 13 7f 37 be 8c 6e 59 3d
       -0.012353684 0.011811242 -0.17919569 0.05308394
000020 f5 4f 1b be 3f d1 9a 3e db fc 1e be 22 3f 6c 3d
       -0.1516722 0.30237767 -0.15526144 0.057677396
000030 93 3e 90 3e 7c b1 74 3e 33 91 9b be 63 09 9b 3e
       0.2817274 0.2389583 -0.30384216 0.302806
000040 f4 e3 a9 bc 17 ed 84 be 17 4c b2 be 64 a1 53 3e
       -0.02073858 -0.25962135 -0.34823677 0.20667034
000050 15 82 49 be 25 93 5e 3e ed 0f 93 3e a6 81 08 3e
       -0.19678529 0.21735819 0.28723088 0.13330707
000060 55 ad 55 be ad e4 ab 3e 66 fd 1e 3c 26 aa 42 bd
       -0.20866902 0.33572903 0.00970397 -0.047525547
000070 98 90 94 bd 17 7b ab be b6 03 0f 3e 19 66 86 be
       -0.072541416 -0.33492348 0.1396626 -0.2624977
000080 b4 69 87 3e 50 ee 9b bd fd 2e 40 be e7 20 ee 3d
       0.26447833 -0.07613814 -0.18767925 0.116273694
000090 94 48 29 be bf f5 94 3d 20 c3 1a be 2b 7e 19 be
       -0.16531593 0.07273435 -0.15113497 -0.14989536
0000a0 87 7e ac be fd 67 91 3e e2 b4 cc 3d 69 ac 73 be
       -0.33690283 0.2839965 0.09995438 -0.23796238
0000b0 bb 94 67 be b8 c3 41 3e 37 9a a1 3e 96 00 1d be
       -0.2261533 0.18922317 0.3156297 -0.15332255
0000c0 36 8f 02 3e b3 25 6f 3e 7d d2 17 be 73 43 9c 3e
       0.12749943 0.23354225 -0.14826389 0.3052021
0000d0 54 ee 30 3e 6b 02 b5 be d5 b4 98 3e 39 e8 18 3c
       0.17278415 -0.35353407 0.29825464 0.00933271
0000e0 4d 36 1e be 75 1b 91 be 55 28 41 3e a0 e5 8b 3e
       -0.15450402 -0.2834126 0.18863042 0.27323627
0000f0 3b 2a 68 be cd 43 9a be aa 9d 82 bd c3 d7 66 3e
       -0.2267236 -0.30129853 -0.06377728 0.22543244
000100 00 70 a9 be f7 d3 81 be 77 0b b0 3e 9e 91 ca bd
       -0.33093262 -0.2535703 0.34383747 -0.098910555
000110 ea ff 44 be d0 ae 75 be bc ce 15 bd d2 ba 7f 3e
       -0.19238248 -0.23992467 -0.03657411 0.2497361
000120 8f 91 62 3e 1d 69 18 3e 84 89 98 3e 9f 4f 9e 3e
       0.22125839 0.14883848 0.29792416 0.3092012
000130 d3 f3 8f be 88 4e 3a be 32 0e b0 3e 50 b4 e0 3d
       -0.2811571 -0.1819402 0.3438583 0.10971892
000140 8c ad b2 3e 7b b4 93 ba e3 f5 7e 3d 1a e8 73 bd
       0.3489803 -0.0011268997 0.062246215 -0.05954752
000150 2b 0c 28 3e 82 ea 29 3e e9 83 89 be 79 99 d7 bd
       0.16410892 0.16593364 -0.26858452 -0.105273195
000160 39 09 20 3d b8 ac a7 be 9a 3e 1b 3d dd e5 17 3d
       0.039071295 -0.3274896 0.0379015 0.03708445
000170 83 07 e8 bd 79 20 93 3e 0f 0a 76 3d f4 ae 09 3e
       -0.11329558 0.28735712 0.060068186 0.13445646
000180 a9 f7 97 be 89 6a 79 3e c4 bf 0c be a3 6b 75 3e
       -0.29681137 0.24357046 -0.13745028 0.23966841
000190 e3 a3 00 3e b5 10 53 be 6f 35 80 be 7d 2f 74 be
       0.12562518 -0.20611842 -0.25040767 -0.2384624
0001a0 43 d3 82 be 1b 7b 92 3d c0 b9 9e 3d bb e2 54 3d
       -0.25551805 0.07152387 0.07750273 0.05197404
0001b0 d1 5b 86 be 90 4a 1c 3e 1c 91 a8 3e 8c 51 7f bd
       -0.26241925 0.15262818 0.3292321 -0.06233363
0001c0 5a 3a 06 be 9c 07 78 3e fc 1e 03 be 17 4f 39 3c
       -0.13108197 0.24221653 -0.12804788 0.01131036
0001d0 a7 74 81 bb 0f 13 74 be 18 43 44 bd 95 a1 1d 3e
       -0.0039506736 -0.23835395 -0.047915548 0.1539367
0001e0 db 46 93 be 5a 91 a7 3d 84 a6 28 3e a4 87 08 bc
       -0.28764996 0.081820205 0.1646977 -0.0083331205
0001f0 f9 61 c3 bc f7 12 24 be fb 3f a7 3e 56 c4 e8 3d
       -0.023850428 -0.1602286 0.32666 0.11365573
000200 e9 9c 83 3e 1e c3 9d 3e a6 bf b0 bc 8a 4f db 3c
       0.2570565 0.30812925 -0.02157576 0.026771326
000210 1b 9f e1 3c a0 6d b4 3e 5a 0a fe 3c 40 2b 30 3e
       0.027541688 0.35239887 0.031010795 0.17203999
000220 fb a6 ea bd ab 43 d6 bd 94 89 a0 3e cb ae ad 3d
       -0.1145763 -0.104621254 0.31354964 0.08480605
000230 e9 57 9a 3e a2 08 8e be 1e da 7d 3e 96 5e 6e be
       0.30145195 -0.2774096 0.24790236 -0.23278269
000240 4f 09 f0 bc 07 08 84 3e d8 6b e3 3d 58 2b b0 be
       -0.029301314 0.25787374 0.11104554 -0.3440807
000250 6a f3 e6 bd 52 f6 31 3e 44 f5 fd 3d 30 64 7d 3e
       -0.11276896 0.1737912 0.12400296 0.2474525
000260 cf 19 05 be 4a 39 9e be 74 8c 99 be 3e ac 31 bb
       -0.12998126 -0.30903083 -0.2998997 -0.002711072
000270 22 2b 8b be 14 5d db bd 44 8e 36 3e 54 79 d3 bd
       -0.27181345 -0.107111126 0.17827708 -0.10325876

linear2.bias f4 [20]
000000 03 7c 3a bd 0c 24 25 be 0c 76 98 be cb a1 69 be
       -0.045528423 -0.16127032 -0.29777563 -0.22815625
000010 11 20 1b be 22 4c 9c 3e 62 80 82 3e 58 5b c4 bc
       -0.15148951 0.30526835 0.25488573 -0.023969337
000020 cf 2a 9c be d1 12 9e be a7 08 b0 3d b6 b8 77 3d
       -0.3050141 -0.3087373 0.085954 0.06047889
000030 f4 7d 61 3e fd d6 a6 3e f4 17 b8 3e 1c 1d df bd
       0.22020704 0.32585898 0.35955775 -0.10894224
000040 c4 ce be bd 83 87 9a bd c2 69 90 3e 7d 39 ad be
       -0.09316781 -0.07545378 0.28205687 -0.33832923

conv2.weight f4 [5, 20, 1, 1]
000000 bc 66 3c be 23 3b 4f 3d 3c 28 43 3c 2d 10 23 be
       -0.18398565 0.050593507 0.011911448 -0.1592414
000010 51 16 c8 3d d2 8b 41 be 21 72 16 bc f1 40 14 3d
       0.097698815 -0.18900993 -0.009182484 0.036194745
000020 41 bb 98 3d 4d 7c d7 bd c9 90 87 3c b8 32 c9 bd
       0.07457591 -0.10521755 0.016548531 -0.09824127
000030 bf a5 57 be ba 7f e2 bd ea 99 2c bd 32 b1 0a 3e
       -0.21059321 -0.11059518 -0.04213897 0.13544157
000040 08 44 da bd 67 02 41 be 8b b4 4c 3c 41 d4 1f 3e
       -0.10657507 -0.18848573 0.012494217 0.15608312
000050 cb 68 2b 3e 6d 61 3f 3e bf 97 06 bc 0c e9 b2 bd
       0.16739194 0.18689509 -0.00821489 -0.087358564
000060 46 71 33 3e 8c 7b 48 3d c5 2d 57 3e 0a 07 94 3c
       0.17523679 0.04894595 0.21013553 0.018069763
000070 c7 63 40 bd b8 7c 3a be b8 b3 f6 3d cc 7c 05 3e
       -0.046970155 -0.18211639 0.120459974 0.13035887
000080 29 76 59 3d de 81 a4 bc c9 04 06 be bf 6f 54 3e
       0.053091202 -0.020081457 -0.13087763 0.20745753
000090 aa 28 b2 3d b2 07 2a bd 7a 15 7b bd 0b ee ef 3d
       0.08699162 -0.041511245 -0.06129978 0.11715325
0000a0 f6 ef 30 be 35 92 59 3e f6 d8 32 be 11 80 c0 bc
       -0.17279038 0.2124718 -0.17465577 -0.023498567
0000b0 ec 5e 48 bd f9 c8 08 be 3d 96 73 bd 0f 30 34 be
       -0.04891865 -0.13357915 -0.05946945 -0.17596458
0000c0 04 06 52 be 6b 01 46 be b4 24 01 3d 26 39 a9 bd
       -0.20510107 -0.19336478 0.031529143 -0.08262853
0000d0 b0 bc 1a be a5 a0 1f be 61 f6 69 3b 2c 41 4c bd
       -0.15111041 -0.15588625 0.0035699832 -0.04986684
0000e0 17 4f 43 be 83 fc f5 bd c1 94 cb bd f8 bc c4 bc
       -0.19073139 -0.120110534 -0.09940482 -0.024015889
0000f0 38 46 59 3e d8 9d 30 bd 39 8b 3d 3e 76 b6 21 3e
       0.21218193 -0.04311928 0.1851014 0.1579226
000100 f2 3a 7b bd 6c a6 7f 3d 72 ec 02 be 58 0c b5 bd
       -0.06133551 0.06241457 -0.12785509 -0.08840245
000110 da 4c 08 be bf 4d 7e 3d 6c e7 0d be 2b 99 f3 bd
       -0.13310567 0.062085863 -0.13857812 -0.11894449
000120 6a ec 1a bc 05 70 3d 3e ca 2c 36 be e1 54 c2 bd
       -0.00945578 0.18499763 -0.17790523 -0.094888456
000130 d1 f1 c5 bd 76 4d 74 bd 48 42 bc 3a e3 8b 02 be
       -0.096652634 -0.059644185 0.0014363015 -0.12748675
000140 31 7d 2b be dc 87 9f 3c 06 3f af bd af 57 ae bd
       -0.16746975 0.019473962 -0.08556943 -0.08512818
000150 6b 3c c1 3d ed 2b 90 3d 00 a4 2d 3e bc 18 26 be
       0.09435352 0.07039628 0.16957092 -0.16220373
000160 9d d6 15 be d4 1a 96 bd 0b 79 4e be 37 3f e6 3d
       -0.1463265 -0.07329336 -0.20163362 0.11242526
000170 5f 3b 16 3e 88 48 55 bc f6 3a 2d 3e 9e 03 8e bd
       0.14671086 -0.013017781 0.16917023 -0.06934284
000180 f3 69 8d bd 5d 8c 20 3e 6a fa 10 be c2 d8 14 3e
       -0.06904974 0.15678544 -0.14158025 0.14535812

conv2.bias f4 [5]
000000 56 89 63 bd 58 a6 61 bd c3 e8 18 be e6 83 ef 3d
       -0.055550896 -0.05509028 -0.14932542 0.116950795
000010 6d 87 af 3c
       0.02142688

attention.W_q.weight f4 [50, 5]
000000 66 89 2a be b9 aa 9f 3e b0 bf 93 be 0d a0 dd 3e
       -0.16653976 0.3118494 -0.28857183 0.43286172
000010 ff 7b 99 3e 17 0f 66 3e 77 e6 a7 3e 2d 6b cb 3e
       0.29977414 0.22466694 0.32793018 0.39730206
000020 4c e2 e9 be 28 84 1d be 5a 53 a0 3e da 0b d6 be
       -0.45680463 -0.15382445 0.31313592 -0.41805917
000030 72 7e 33 bd d8 e2 b6 be ac 5c cc bd a2 ec 30 3d
       -0.04382176 -0.35719943 -0.09978613 0.04319442
000040 56 df 80 be aa 26 99 be 94 05 e3 be 89 b5 36 be
       -0.25170392 -0.2991231 -0.44340193 -0.17842688
000050 69 6e 26 be 26 1b a3 3e 3f d6 10 be 54 d4 08 3d
       -0.16253056 0.3185665 -0.14144228 0.033405617
000060 da c4 3f 3e 6e 27 ad 3e 0f 8f da be e6 d2 51 3d
       0.18727437 0.33819145 -0.4268727 0.05122652
000070 fc 24 10 3e af 91 ae be 21 9a b3 3e b4 fe d5 be
       0.14076608 -0.34095523 0.3507853 -0.41795886
000080 d4 a8 88 be 80 de b3 3e a3 e1 de 3d 73 ac b7 bd
       -0.26691306 0.35130692 0.108828805 -0.08968439
000090 56 29 d2 be ad 8d c7 be d2 cb cc bc 8c ea b7 3e
       -0.41047162 -0.38975278 -0.024999533 0.35921133
0000a0 55 f9 9b 3e 66 d7 7b be 5b d2 ad be 75 44 15 bd
       0.30463663 -0.24593887 -0.3394955 -0.03644224
0000b0 d2 21 c4 3e 3c 54 0f 3d 1e 05 de be 13 ed c0 3e
       0.38307053 0.03499244 -0.4336328 0.37680873
0000c0 7d 62 c8 3d 88 b2 80 bd aa 67 91 be 82 f2 b0 be
       0.0978441 -0.06284052 -0.28399402 -0.3456002
0000d0 5e 06 51 3e 1e 3c b3 bd 82 d1 5b 3e 55 0e 17 3e
       0.20412585 -0.08751701 0.2146664 0.14751561
0000e0 f2 57 93 be 5e 74 42 3c 0a 96 43 3e 26 59 d9 be
       -0.28778034 0.011868564 0.19100204 -0.42450827
0000f0 70 ed 60 be 2c 71 7a 3e f6 f8 40 3c 80 ee 22 bd
       -0.21965575 0.24457234 0.011778107 -0.039778233
000100 7f 60 d1 3e 66 14 1c 3c 4a 2b 35 be 58 a3 c4 3e
       0.40893933 0.009526348 -0.17692295 0.3840587
000110 45 6f a2 3e 2f 1d 25 be d8 e5 ac be 2a 73 85 3d
       0.31725517 -0.16124414 -0.33769107 0.065161064
000120 01 2c 8d be 38 ab ae be 2e 1e b4 3e 10 db db be
       -0.27572635 -0.34115005 0.35179275 -0.4294057
000130 31 69 ab 3e 2e 2a d3 be 91 58 c8 3e 6b b4 8d be
       0.33478692 -0.41243118 0.3913007 -0.2767671
000140 87 83 88 3e eb 89 b2 bd 09 ac b4 be f7 e3 eb bd
       0.26662847 -0.08717712 -0.35287502 -0.1151809
000150 ef c5 dd be 60 9b cd 3e c4 79 7c be df 0b 90 bd
       -0.43315074 0.40157604 -0.24655825 -0.07033514
000160 d0 b2 3b be 4f e1 b1 3e 99 b9 89 bc 94 a2 aa bd
       -0.1832993 0.3474221 -0.016812133 -0.083317906
000170 dc b7 1b 3e e6 ce 9a 3e 70 6c c9 bd ec f8 8b be
       0.15206856 0.30235976 -0.09835136 -0.2733835
000180 02 45 ca be ba 05 a7 be ff d1 84 be 9a 00 4b 3e
       -0.39505774 -0.32621557 -0.25941464 0.19824448
000190 6e 72 d7 3e b0 ae 84 be b3 27 8d 3e dc 3a 78 bc
       0.4207949 -0.25914526 0.2756935 -0.015150752
0001a0 e3 14 94 3e 14 13 62 3e 78 3a d1 3e 8f bd a6 3e
       0.28922185 0.2207759 0.4086492 0.32566497
0001b0 02 4b 53 3d 6d 32 5a be ef 40 e0 3e 17 10 63 be
       0.051585205 -0.21308298 0.4379954 -0.22174107
0001c0 c4 04 d3 bd ff b1 50 bc 5c a2 96 be 5a c0 48 be
       -0.10303643 -0.01273775 -0.29420745 -0.19604626
0001d0 c2 b9 89 be 10 19 e0 bd c6 7a d0 3e 30 47 c5 be
       -0.26899534 -0.1094228 0.4071867 -0.38530874
0001e0 d8 07 88 bd 51 ef 06 bd e5 2a 3a 3e 12 48 c5 3e
       -0.06642121 -0.032943074 0.18180425 0.38531548
0001f0 dd b7 c1 3e 15 2b e9 3c 76 f0 5b be 9d 24 bd 3e
       0.3783559 0.028462926 -0.21478447 0.36941996
000200 23 c3 a4 be e7 d9 9c be 2d 9f b3 be cc 7d 8d be
       -0.32180128 -0.30634996 -0.3508238 -0.27635038
000210 2a 16 27 3d 93 ec 70 be f2 0f e2 3e e4 68 0a be
       0.04079262 -0.23527746 0.4415279 -0.13516575
000220 50 07 86 be 5e 8b c6 3d 6f b9 f6 3d d6 f6 50 3e
       -0.26177454 0.09694551 0.120470874 0.2040666
000230 b6 8b 28 be a9 3a 88 be 6a 83 c4 be 50 56 88 3e
       -0.16459545 -0.26607254 -0.3838151 0.2662835
000240 d4 c1 55 3e 43 6b 86 3e e5 74 5e 3e 35 2b b7 3e
       0.20874721 0.2625371 0.21724279 0.35775152
000250 24 94 f6 bc cb ce a0 be ef 78 e0 be 76 6e 46 3d
       -0.030099936 -0.3140777 -0.43842265 0.048445188
000260 73 cb a4 be 42 71 d7 3e 2a bf 88 be d1 c7 c3 3e
       -0.3218647 0.42078596 -0.26708347 0.38238385
000270 83 fe 69 3e 01 51 0a 3e 9a 14 c2 be a7 a7 05 be
       0.22850995 0.13507463 -0.37906343 -0.13052236
000280 2a 96 8a 3e 5f 12 96 3e 0e bb 11 be 0d ee 30 3d
       0.2706769 0.2931089 -0.14231512 0.043195773
000290 3e 6a e2 be 68 e5 b1 bd 76 23 e1 bd a5 44 41 be
       -0.4422168 -0.08686334 -0.10993092 -0.18873842
0002a0 36 b9 d6 3e 3c f4 cc 3e bf 98 5b 3e cf 6b 9f 3e
       0.4193818 0.40030086 0.21444987 0.3113694
0002b0 5d 7f 13 be 96 f6 99 bd bc ed 97 3d 5e 79 bb be
       -0.14404054 -0.07517736 0.07418391 -0.36616033
0002c0 41 70 86 3e ba bd e2 bd 61 3f 22 3d 04 a4 ce be
       0.26257518 -0.11071344 0.039611224 -0.4035951
0002d0 63 c8 ae 3e e4 f5 be 3e 6e bb 3b be a1 40 a2 be
       0.34137258 0.37296975 -0.18333218 -0.31689933
0002e0 12 58 cb 3c 61 b8 bc 3d fe 08 c4 be fb a8 95 bd
       0.024822269 0.09214855 -0.3828811 -0.07307621
0002f0 6b 38 87 be bf 26 c7 3e 50 90 85 3e 23 2a 78 be
       -0.2641023 0.38896748 0.26086664 -0.24234824
000300 5d 3c a9 be 72 87 34 be 2b 02 c1 3e 2c 91 92 3e
       -0.33053866 -0.17629793 0.37696967 0.28626382
000310 03 51 c1 3d 98 be ab 3e 70 57 70 be a5 e0 d0 3e
       0.0943928 0.3354385 -0.23470855 0.4079639
000320 34 72 1e 3e b9 19 69 3e bd 45 4c 3e 5a ca 6b 3d
       0.15473253 0.22763719 0.19948478 0.057566024
000330 03 58 b2 be 96 c7 3e 3d d0 ff d6 be b5 75 ac bc
       -0.34832773 0.04657706 -0.41992044 -0.02105222
000340 80 7d 4b be 73 6a 92 3e a7 23 b6 be 55 ec b4 3e
       -0.19872093 0.2859684 -0.35574076 0.35336557
000350 e3 c9 9d 3e c0 6b 2c 3e b7 fb 86 3e dc 8c e2 3e
       0.3081809 0.16837978 0.26363918 0.44248092
000360 44 68 86 3d 02 48 a9 3e 00 f2 5f 3e 17 df 1e 3e
       0.06562856 0.3306275 0.2186966 0.1551479
000370 0d 64 6b 3c a2 53 f0 3d 03 7c af bc 1f b3 d0 3e
       0.014367116 0.11734702 -0.021421438 0.4076166
000380 b4 af d3 bd 5d 6b 90 be 37 03 77 be 78 b8 d2 bc
       -0.10336247 -0.28206912 -0.2412232 -0.025722727
000390 bd 8f b7 be 45 89 c7 3e 18 df 20 be a4 a9 60 3d
       -0.3585185 0.38971916 -0.15710104 0.054849282
0003a0 33 be a3 3e f1 09 ea bb e0 8b df be bd 2b 29 be
       0.31981048 -0.0071422984 -0.43661404 -0.16520591
0003b0 6a d3 d8 3d 12 e2 84 3e 0c 6c 81 be 82 d8 3e be
       0.10587199 0.25953728 -0.25277746 -0.18637279
0003c0 38 e4 cf bd be d8 ca be 3e 93 87 be 82 0a 86 3e
       -0.10150951 -0.39618486 -0.26479524 0.26179892
0003d0 29 7f b6 be c4 35 87 be d8 18 75 be e4 95 50 be
       -0.3564389 -0.26408207 -0.23935258 -0.20369679
0003e0 7a 26 c3 3e 3d 71 ad be
       0.38115293 -0.33875456

attention.W_k.weight f4 [50, 5]
000000 59 5a c4 3e 28 70 d6 3d 42 92 45 3e 44 75 28 3d
       0.3835018 0.10470611 0.19294074 0.04112746
000010 0b 87 34 be 47 c1 f9 3d 1c 14 72 be e2 35 92 3e
       -0.1762964 0.12195068 -0.23640484 0.28556734
000020 67 d9 f2 3d f0 87 d6 be 08 43 d6 be 22 61 a0 3c
       0.118578725 -0.41900587 -0.41848016 0.019577567
000030 38 8f 29 3e ae 66 53 bd c0 67 d6 be 94 25 82 be
       0.1655854 -0.051611595 -0.4187603 -0.25419295
000040 53 a0 bc be 2a 9c 8b 3e 86 75 db be e0 23 76 bd
       -0.36841068 0.2726758 -0.428631 -0.060092807
000050 f6 05 f6 bb 3a d1 cc 3e d8 76 53 be dc ca 75 3d
       -0.007508035 0.40003377 -0.20650804 0.060007915
000060 f2 4a 57 3e b2 40 a1 3e 82 83 0f be 6d 62 a2 3e
       0.21024683 0.3149467 -0.1401501 0.31715718
000070 70 de 3b be ca 5b 55 3e d8 a2 df 3e 96 cb c4 be
       -0.18346572 0.20835796 0.43678927 -0.38436574
000080 e2 0e 84 be 25 ae da 3e 71 6f b4 3e 1c f3 bc 3e
       -0.25792605 0.42710987 0.35241273 0.36904228
000090 58 55 01 3d 0f 62 9d 3e 19 4d 81 3e b9 f2 35 be
       0.03157553 0.30738875 0.25254133 -0.17768373
0000a0 4d 43 6d 3e 3b 4f f4 3d 82 f4 8e 3e 32 36 a8 bb
       0.23170204 0.119291745 0.2792092 -0.0051334137
0000b0 c0 ef 6f be 40 db 88 3d cb ef 02 3e a5 51 97 be
       -0.23431301 0.066824436 0.12786786 -0.29554477
0000c0 91 15 a0 be b0 86 2c bc a8 44 bf 3e ad 6c b5 bd
       -0.31266454 -0.010530159 0.37357068 -0.08858619
0000d0 4b 3d b9 3e 8a c4 9f 3e 82 f4 10 be cb 1e 3c bd
       0.36179575 0.31204635 -0.14155772 -0.045927804
0000e0 9c b1 b6 be ea 86 f9 3d 05 4b b0 bd 9f 45 c7 3e
       -0.3568238 0.12183936 -0.08608059 0.38920304
0000f0 ea 66 94 be 0b 91 99 be 80 6e 35 be 10 4a cd be
       -0.28984767 -0.29993472 -0.17717934 -0.40095568
000100 2a 51 74 3e 79 f3 35 bd af bc 96 be 02 72 d9 bd
       0.23859087 -0.044421647 -0.2944083 -0.106174484
000110 ed bc 9b 3d 87 62 2f be 34 10 a5 be 8c 54 48 3e
       0.07604394 -0.17127429 -0.32238925 0.19563502
000120 0a 42 4f 3e 83 ee 81 be a6 a6 92 ba 20 c7 64 bd
       0.20240036 -0.25377283 -0.0011188581 -0.055853963
000130 80 77 83 be 3f fc cf 3e 90 5e ef bb b2 14 54 3e
       -0.2567711 0.40622136 -0.007304974 0.2071102
000140 f8 c3 e8 3e 38 e5 63 bd cf 7e c0 be 1c a7 d4 3e
       0.45462012 -0.055638522 -0.37596747 0.41533744
000150 df 10 a0 be 2d da 85 3e 6d c2 57 3e da bd a2 3c
       -0.31262872 0.26143017 0.21070261 0.019865919
000160 8c f6 28 3d cc 89 6d 3d 82 27 0c 3e 44 fd 9d 3e
       0.04125075 0.05799274 0.13686946 0.3085729
000170 5b 14 96 be 2b a4 0f 3e be 6b 91 3e dd c3 ac be
       -0.29312405 0.14027469 0.28402513 -0.33743182
000180 09 fd ab 3e 80 3b 4d 3e c4 56 9a be 2e cd b9 be
       0.33591488 0.20042229 -0.30144322 -0.36289352
000190 98 f1 8c 3e 11 9f 0f be 2f 1c d9 3e 86 4a 4a be
       0.2752807 -0.14025523 0.42404315 -0.19754991
0001a0 59 76 d6 3e b3 5c 7e 3e 08 c0 b9 bb 48 67 d3 3e
       0.41887167 0.2484005 -0.005668644 0.41289735
0001b0 bc c8 0f 3e 65 8f e5 bd 36 b2 16 be 23 b2 68 be
       0.14041418 -0.11208991 -0.1471642 -0.22724204
0001c0 d1 74 98 3e 3c 0a 93 3e c5 9c 59 3e cb 87 fc 3c
       0.29776624 0.28718746 0.21251209 0.03082647
0001d0 e9 35 cd be 9a 51 02 be 5a d7 df 3e 11 1f ac 3e
       -0.40080193 -0.12726441 0.43718988 0.33617452
0001e0 0f 31 36 bd 4e 62 7e 3c f5 ee 69 be 2c db 63 3e
       -0.04448038 0.015526367 -0.22845061 0.22251576
0001f0 3f b6 5a 3c f9 30 16 3e 76 e4 b1 3d e6 8e c6 be
       0.013349115 0.14667119 0.086861536 -0.38780898
000200 1e 64 55 3e 99 2a 63 3e 16 81 c3 be 33 04 93 bd
       0.20838973 0.22184218 -0.38184422 -0.07178535
000210 7e 54 9b 3d 93 92 ab 3c 30 86 7b 3d a7 fc b3 3d
       0.07584475 0.020943915 0.061407268 0.08788424
000220 b0 ee 89 3e 64 4e c5 3e 17 44 23 bd 61 c6 90 3e
       0.26939917 0.3853637 -0.039859857 0.2827635
000230 db 56 90 bd 38 32 6e be c9 01 b4 bc ac f7 c7 be
       -0.07047816 -0.23261344 -0.021973507 -0.39056146
000240 8a 9d 6b be 7d 2f f8 3d 70 94 a7 3b c5 b1 ab 3e
       -0.23009315 0.12118433 0.0051141307 0.33534065
000250 34 f4 ca 3e 4d f0 97 be 36 c1 92 be b0 b8 57 be
       0.39639437 -0.29675522 -0.28663033 -0.21066546
000260 e6 3c a5 3e e3 2a 3a 3e 39 80 68 be 54 67 48 3c
       0.32273024 0.18180422 -0.22705163 0.012231667
000270 22 4a 1d be 39 0d bb 3e b5 88 a8 be 4b 29 84 3e
       -0.1536031 0.36533526 -0.329168 0.25812754
000280 c7 5d af bd e3 48 da 3e e0 e0 0d 3e 09 70 32 be
       -0.085628085 0.42633733 0.13855314 -0.1742555
000290 7c ad 4b be e6 7f b1 be d8 6e ce be 51 5d 41 3e
       -0.19890398 -0.3466789 -0.40318942 0.18883254
0002a0 37 77 c0 be 9c 65 a9 3d 27 c8 a0 be 9a 20 aa bd
       -0.37590954 0.082713336 -0.31402704 -0.083069995
0002b0 2c 6d 02 be 17 96 08 3e 54 73 b3 3e 38 61 57 3e
       -0.12736958 0.13338505 0.35048926 0.2103318
0002c0 96 7e 44 bd 11 0f 18 be 6b 57 2d bc 31 f2 e0 bd
       -0.047972284 -0.14849497 -0.010579924 -0.10983694
0002d0 3b 46 17 3e 1c 06 ad 3e eb 4b 47 b8 27 1b e0 3e
       0.14772885 0.33793724 -4.7516e-05 0.43770716
0002e0 3d 64 63 bc c0 b5 d6 be 35 17 2b bd 50 b3 b9 3e
       -0.013878879 -0.4193554 -0.04177018 0.36269617
0002f0 31 4c 61 be 54 78 87 be 94 16 c6 be 7c c3 86 bd
       -0.22001721 -0.2645899 -0.386891 -0.065802544
000300 ba 55 3d 3e 97 7c 44 be 41 c5 f2 3d 56 82 85 be
       0.18489733 -0.19188152 0.118540294 -0.26076
000310 01 9c 3e 3e 63 e8 6c 3e 50 5a 92 3e 20 47 a3 be
       0.18614198 0.23135523 0.28584528 -0.31890202
000320 a9 81 27 3e 2e 2f 50 be 8a a0 0e 3e b6 52 b7 3e
       0.16358055 -0.20330498 0.13928428 0.3580529
000330 92 0c 82 3e 59 10 02 3e 14 6c ac be 87 ce 0e be
       0.25400215 0.12701549 -0.33676207 -0.13945971
000340 6b eb a1 be be c0 8b be 55 5e 15 3e cb a1 d8 3e
       -0.31624922 -0.27295488 0.14586766 0.42310938
000350 a2 e6 d1 3e ac e1 d9 be de 90 e6 3c cf b3 99 3e
       0.4099627 -0.42554986 0.02814525 0.30019996
000360 9f b8 25 3d 5d 03 8b 3d 50 86 0c 3e 9a cb 0c be
       0.04045927 0.06787751 0.13723111 -0.13749543
000370 f2 b3 b6 3e 57 fd 12 3d ed 44 c4 bd a9 bc 73 3e
       0.35684162 0.035886135 -0.09583459 0.23802437
000380 ca 8f d9 bd 16 28 ee 3d ae ba 74 3e 60 1d 07 be
       -0.10623129 0.116287395 0.23899338 -0.131948
000390 aa 09 17 3e 46 23 39 3e 9b 6e 7c 3e b9 4b 8f be
       0.1474978 0.18079862 0.24651568 -0.2798746
0003a0 cd b9 40 be af 1e 82 be 43 2c b4 be db fc cf be
       -0.18820877 -0.25414035 -0.3519002 -0.406226
0003b0 0e e1 e1 be 13 10 04 be e7 78 a8 be e1 74 7a 3e
       -0.44117016 -0.12896757 -0.3290474 0.24458648
0003c0 71 73 53 be d6 59 15 3e 04 e8 7f be a7 f1 32 3d
       -0.20649506 0.14585051 -0.2499085 0.04368749
0003d0 ba 7e 7d 3d bd 70 68 3a 8c da 02 be 53 e6 a3 bd
       0.061888434 0.0008866897 -0.12778682 -0.08002915
0003e0 3f 7f c7 be 72 eb 2f 3d
       -0.3896427 0.042949148

attention.W_v.weight f4 [5, 5]
000000 ca 6a 4e be 64 14 43 3e ab fb ce be 57 4d d7 be
       -0.20157924 0.19050747 -0.40426382 -0.42051193
000010 e6 7a 47 3e a6 fc ac 3d 22 c4 96 3e 28 36 75 bc
       0.19480476 0.08446626 0.29446512 -0.014966525
000020 cb 86 1b 3d 3a 00 9b bd 70 e4 96 3d 03 06 88 be
       0.037970345 -0.075684026 0.0736779 -0.26567087
000030 d3 99 82 bb 54 14 44 bd f6 e6 a6 be a1 2b a7 3e
       -0.0039856224 -0.04787095 -0.32598084 0.32650474
000040 70 ff d4 bd c7 4d c6 bd 30 c6 93 be 30 d2 a7 3d
       -0.10400283 -0.096828036 -0.28862143 0.08194387
000050 16 88 71 3e b7 ec 86 3e be 26 35 3e fd dd bb be
       0.23587069 0.26352474 0.1769056 -0.366928
000060 e4 72 80 be
       -0.25087655

fc1.weight f4 [4, 80]
000000 19 e1 c0 3d 3a f3 d2 3d d4 46 8d bd 0e 40 8f 3d
       0.09417934 0.10300298 -0.06898275 0.06994639
000010 08 0d af 3d de 11 76 bd 82 55 21 bc bb 98 bc bc
       0.085474074 -0.060075633 -0.009847047 -0.023022046
000020 99 6e 3e 3d 52 0a 28 bd 58 57 7b bc 78 1b e9 bd
       0.046492193 -0.041025467 -0.015340649 -0.113821924
000030 59 78 8b 3d ee 6a bf 3d 3c dd b5 bd 35 06 a6 bd
       0.06810064 0.09346567 -0.08880088 -0.08106653
000040 12 b8 9e 3d f7 8d 94 3b 7a b3 bb bd fd 61 28 3d
       0.077499524 0.004533525 -0.09165092 0.041109074
000050 50 80 a9 bd 2b 75 d2 3d fc ea ae 3d ba e3 ff bc
       -0.08276427 0.10276254 0.085409135 -0.031236518
000060 23 f9 45 bd 1b 64 a0 bd 99 c8 a1 3d d4 b8 a1 bd
       -0.0483333 -0.078315936 0.07899589 -0.07896581
000070 7e 7c c6 bd ef 67 e2 bd 42 40 56 3b c5 11 a6 3d
       -0.09691714 -0.1105498 0.003269211 0.08108858
000080 5c 73 e8 bd 60 e8 db bd a2 f7 f5 bc a5 48 c2 3d
       -0.11350128 -0.107376814 -0.030025307 0.09486512
000090 ef c1 f4 bc d8 36 6b bd 84 7a b2 3d 04 70 16 bb
       -0.029877631 -0.05742535 0.08714774 -0.002295495
0000a0 02 3a 20 bd f7 54 90 bd 43 15 ac bd f7 a3 2d 3d
       -0.03911782 -0.07047456 -0.08402493 0.042392697
0000b0 d6 39 0b bd 16 ea 06 bd ec 31 5d bd 3d 21 61 3d
       -0.033990704 -0.032938085 -0.054002687 0.05496334
0000c0 d8 db 59 bd 63 72 39 3c f0 ca ae 3c 4a 10 d1 3d
       -0.053188175 0.011318776 0.021337003 0.10208185
0000d0 bf bc 9d bd ef ee 80 bd 9e 71 87 3d 2f 42 fe bc
       -0.07702016 -0.06295573 0.06613468 -0.031037418
0000e0 f8 d1 a3 bd 07 60 7e 3c d2 c4 c3 bc d0 be 86 bd
       -0.07999033 0.015525824 -0.023897562 -0.06579363
0000f0 56 57 9c bd b2 63 b6 bc c5 d5 ff 3c 41 df 3e bd
       -0.076338455 -0.022264335 0.031229863 -0.04659963
000100 e5 40 31 3d 7d 97 e0 3d 1f f1 44 bd 70 b7 6e bc
       0.04327478 0.10966394 -0.048081513 -0.014570102
000110 6b 71 a3 bd 8f 01 16 bd 92 e7 9c 3d cc 8e be bd
       -0.07980617 -0.03662258 0.07661356 -0.0930458
000120 17 9b 73 3d a3 de b3 3b 13 6c 19 bc 66 9e 4c bd
       0.059474077 0.005489187 -0.009364146 -0.049955748
000130 c0 70 97 bc e3 cc 35 bb 27 df 9f 3d b2 1d 4b bd
       -0.01848638 -0.002774053 0.07806235 -0.049588867
000140 7c fb 54 bd 66 36 1e 3c a2 8c 23 bd 17 95 21 bd
       -0.051997647 0.009656524 -0.03992904 -0.039448824
000150 08 06 a0 3d fa 05 fb 3c 47 82 46 3d a7 af 87 3d
       0.0781365 0.030642498 0.048464086 0.066253
000160 71 4d 25 3d fe be 85 bd 89 70 dc bc e5 60 15 bd
       0.040357057 -0.065305695 -0.02690913 -0.03646936
000170 f2 20 a4 bd b5 18 35 bd f4 cf 67 3d 63 86 01 bc
       -0.08014096 -0.044213016 0.056594804 -0.007905575
000180 88 12 83 bd b1 a1 db bd 87 6f b9 bd 7b 8c e7 bd
       -0.06400019 -0.107241996 -0.09054475 -0.113060914
000190 0b ef 37 bd d3 2c 9b 3d 06 9a a6 3d 56 0c 4f bd
       -0.044905704 0.07576909 0.081348464 -0.050548874
0001a0 01 c5 a0 3d 76 d6 cb 3c 92 db c2 bd e7 90 a9 bd
       0.078500755 0.024882536 -0.09514536 -0.08279591
0001b0 f1 7a bf bc 08 8b 7f bd e5 74 26 bb 7f d9 dd bc
       -0.023374053 -0.06238845 -0.0025399264 -0.02708125
0001c0 30 7c 18 3d e4 12 0d bd 99 62 b3 3b 2d b5 65 3d
       0.03722781 -0.034441844 0.0054744002 0.056080986
0001d0 5c 51 da bc 4a 0a fc bc 46 72 88 bb 86 b0 cd 3c
       -0.026650123 -0.030766625 -0.004164013 0.025108587
0001e0 56 90 55 3d ed ee 7f bd 79 48 70 3c ea b2 da 3c
       0.052139603 -0.062483717 0.014665716 0.026696641
0001f0 bd 0f c5 3d 48 2a c1 bd 6f d1 0f bd 9a c6 27 bd
       0.096221425 -0.09431893 -0.03511184 -0.040960886
000200 a4 ee e2 3d 85 7e af bd f0 c5 23 3d 4c c9 c5 bb
       0.11080673 -0.085690536 0.03998369 -0.0060359593
000210 0b 30 e8 bc a2 a4 d6 3c 84 30 c7 bd 57 a2 c3 3d
       -0.028343221 0.02620155 -0.097260505 0.09552448
000220 b1 d0 6b 3d c5 b5 47 3d 49 1d ad 3d 0e 63 c3 3d
       0.05757207 0.048757333 0.08452851 0.095403776
000230 e4 00 b3 39 13 ce ca bc 31 94 0a 3d bd e1 e9 3c
       0.00034142204 -0.024756467 0.033832733 0.028550023
000240 1c 11 fa bc 24 cf b2 3c c2 4d fb 3c f1 cf c6 3c
       -0.030525737 0.021827288 0.030676726 0.024269076
000250 50 40 c9 3d 42 22 b9 3b a0 2f ba 3d 67 84 0b bd
       0.0982672 0.005649836 0.09091115 -0.034061816
000260 ff ff e9 bc 28 a3 8b bd f3 a3 f9 3c 59 19 ac bd
       -0.028564451 -0.06818229 0.030473685 -0.08403272
000270 c6 05 96 bb 05 bb b5 3c 48 20 95 3c 39 59 a0 bd
       -0.004578325 0.022183904 0.01820387 -0.07829518
000280 da 1a 97 bd cc 61 2f bc 15 34 26 bc b5 61 49 bc
       -0.073781684 -0.010704469 -0.010144253 -0.012291362
000290 1e 4c a3 3c 59 40 11 bd 86 9c 60 3d f2 d5 d3 bd
       0.019933756 -0.035461757 0.054836772 -0.10343541
0002a0 3b 8d 9b 3d 71 55 cc 3d f7 23 40 3d dc 99 ac bc
       0.07595297 0.09977234 0.0469093 -0.02106946
0002b0 7a d9 ec bc 0c e7 a8 bd 7e 1f ba bd 5f 5e 10 bd
       -0.028912295 -0.08247194 -0.09088038 -0.03524625
0002c0 20 65 9d 3d d8 63 ca 3c 05 65 d4 bd 20 f9 bb bd
       0.07685304 0.024705812 -0.103708304 -0.09178376
0002d0 eb 6e c6 3d ba c2 af 3d 52 39 0f 3d 54 05 58 3d
       0.09689125 0.08582063 0.034966774 0.052739456
0002e0 42 a1 74 bd 85 7a 3e 3d f1 e6 46 3d 8d 9a 6d 3b
       -0.0597241 0.046503562 0.048560087 0.003625545
0002f0 af e3 08 3b 25 55 44 3d 2d 9b fa 3b d5 8b b0 bd
       0.0020887663 0.047932763 0.007647893 -0.08620421
000300 0d 96 bf bd 3b cb c4 3d d4 ec 41 bd 53 d3 b8 3d
       -0.09354792 0.09609076 -0.047344998 0.09024682
000310 ce 01 61 3d 91 0a 9c bd f9 a6 c0 bc 37 9e 8b bd
       0.05493336 -0.07619203 -0.023517119 -0.068172865
000320 63 f3 a4 bc 81 0c c2 bd 39 fc d4 3d ce a7 1f bd
       -0.020135587 -0.09475041 0.1039967 -0.03897839
000330 d6 33 1e bd 96 02 82 bd 8c a8 16 3d bd 4e bd 3d
       -0.038623653 -0.063481495 0.036781833 0.09243534
000340 9f 1a 29 bd 82 a3 a0 3d 22 cf 50 3d 46 d1 0d 3b
       -0.041285153 0.07843687 0.050978787 0.002163963
000350 49 28 c5 bd 96 42 99 bd 60 81 af bd 77 ca 9b bd
       -0.096268244 -0.074834034 -0.08569598 -0.076069765
000360 95 fa c5 bc f7 82 ce 3d ac 81 7c 3d 40 f0 88 bd
       -0.024167338 0.10083573 0.061647102 -0.06686449
000370 81 83 c6 3c 07 a4 95 3d fa ab 16 bd 4a b7 ce 3c
       0.024232628 0.07306676 -0.036785103 0.025233883
000380 f0 61 72 bd 6d 20 67 bd 3c 7f 71 bc 57 90 97 3d
       -0.05917543 -0.056427408 -0.014739808 0.074005775
000390 80 d6 b2 3d 05 5d d0 3c 49 4b f4 3c 1c c9 20 3d
       0.08732319 0.02543498 0.029821055 0.039254293
0003a0 b7 eb 68 3c 78 f9 f8 3c da a4 0d 3d 22 ee b8 3c
       0.014216355 0.030392393 0.034581043 0.022574488
0003b0 f3 64 84 bb 04 07 6f bd 68 76 5a 3d dc c2 22 bd
       -0.0040403544 -0.0583563 0.053335577 -0.039736614
0003c0 e7 19 6d bd e1 ab 07 bd 6d 99 b6 bd 03 96 da 3d
       -0.05788603 -0.0331229 -0.089159824 0.10673144
0003d0 c1 fd 98 bd 6b fe 85 bd 2b cb c8 3d 1e 84 ca 3d
       -0.07470275 -0.06542667 0.09804376 0.098884806
0003e0 b2 5b 5c bd 1b 06 a4 3d 26 40 6d 3d f3 48 bd bd
       -0.053798385 0.08008977 0.057922505 -0.092424296
0003f0 ed e9 a0 3c 15 1f e1 3d e4 08 89 3d ee eb c9 bb
       0.019642795 0.109922566 0.06691149 -0.006162158

fc1.bias f4 [4]
000000 38 13 20 bd 3a 3a b1 3d 61 5d 21 bc 17 34 e7 bd
       -0.03908083 0.08653684 -0.009848923 -0.11289232
