interspeech/Scalp-EEG/analysis/python/EEG_code/model_3D/64_pNB_EEG_STANet/sb0/fold0.ckpt (torch, 15726 bytes, 12 tensors)

conv1.weight f4 [1, 1, 64, 1]
0	0x3c8e63d0	0.017381579
1	0x3db69c7b	0.08916565
2	0x3de86c25	0.11348752
3	0xbdd3670e	-0.103223905
4	0xbdb3db2d	-0.08782039
5	0xbd1ce7b1	-0.038306896
6	0xbd89cc78	-0.067284524
7	0x3cfbd6c9	0.030742066
8	0x3a7a9b90	0.0009559924
9	0x3d8725e4	0.06599024
10	0xbdb1076a	-0.08643992
11	0x3bf8cb96	0.0075926287
12	0xbdb7c5d3	-0.08973279
13	0x3d3e89e1	0.04651821
14	0x3dee5dce	0.116389856
15	0xbc6d1d3f	-0.014472305
16	0xbd47d71d	-0.048789132
17	0x3dc2794d	0.094957925
18	0x3d79b52e	0.060963802
19	0x3cf613a4	0.030038662
20	0x3dccec1b	0.10005971
21	0x3dcb51aa	0.099276856
22	0x3d20757f	0.039174553
23	0x3d47759d	0.04869615
24	0xbd8a0c7a	-0.06740661
25	0xbb4cc42b	-0.0031244855
26	0xbd96f764	-0.07371405
27	0x3d9afb2d	0.07567439
28	0xbdc8dd61	-0.0980785
29	0xbdcfeed8	-0.10152978
30	0xbd45d212	-0.04829604
31	0xbde80d7c	-0.11330697
32	0x3de704ee	0.11280237
33	0x3d5056ea	0.050864138
34	0x3d553a38	0.052057475
35	0xbc512774	-0.012765754
36	0x3c59ba28	0.013289012
37	0xbda6d4da	-0.08146067
38	0xbd19ada5	-0.037519116
39	0x3c85a9f1	0.016316386
40	0xbdea0fbe	-0.11428784
41	0xbbcbbab2	-0.006217324
42	0xbbf559bc	-0.007487504
43	0x3d7cbb8a	0.06170229
44	0x3dea631c	0.11444685
45	0xbb5fe141	-0.0034161361
46	0xbabe4170	-0.0014515352
47	0x3e06cf3b	0.1316499
48	0xbd757951	-0.05993015
49	0x3cea6bbf	0.02861583
50	0x3cfa89a5	0.030583212
51	0xbdafee33	-0.08590355
52	0xbd721b08	-0.05910781
53	0x3cba152e	0.022715177
54	0xbd52ea10	-0.05149275
55	0x3b41ab9e	0.0029551755
56	0x3deff049	0.11715753
57	0xbc5de9b7	-0.0135444915
58	0x3d46c0e4	0.0485238
59	0x3dad41dc	0.08459827
60	0xbda948d7	-0.08265846
61	0xbb07ed1b	-0.002074069
62	0x3b85d181	0.0040838127
63	0xbddf50f5	-0.10904113

linear1.weight f4 [8, 59]
0	0x3dbe2471	0.092842944
1	0xbe051cb2	-0.12999228
2	0x3d6b4ff3	0.057449292
3	0xbd9f39b2	-0.077746764
4	0xbcc5dd59	-0.024153398
5	0xbde753bd	-0.11295269
6	0x3d25366d	0.040335108
7	0x3da6da0e	0.081470594
8	0xbcc5a7c0	-0.024127841
9	0xbd4a730a	-0.049426116
10	0xbda817de	-0.08207677
11	0x3df37da5	0.11889199
12	0xbd4a93a3	-0.049457204
13	0x3d9d1738	0.07670444
14	0xbd82fbf1	-0.0639571
15	0x3bcfeae9	0.006345142
16	0x3bbb5f9a	0.0057181837
17	0xbbac5e19	-0.0052602408
18	0xbde9aa55	-0.114094414
19	0x3d445961	0.0479368
20	0x3d860640	0.06544161
21	0xbd1d4ff2	-0.03840632
22	0x3ddb670f	0.10713016
23	0xbbb1224f	-0.005405701
24	0xbd6d5ed7	-0.057951774
25	0xbd23ff16	-0.04003819
26	0xbcaf7ac4	-0.021420844
27	0x3ce44afe	0.02786779
28	0xbdc3472e	-0.09535061
29	0xbd9f184a	-0.07768305
30	0xbdb7f1ef	-0.08981692
31	0x3c4f8eea	0.012668351
32	0xbccb8bed	-0.024846995
33	0xbe0124f8	-0.12611759
34	0x3cbc1f13	0.022964036
35	0xbd91acd2	-0.07113041
36	0x3c8bdd16	0.017073195
37	0xbb54d275	-0.0032474075
38	0xbd3e61cd	-0.04647999
39	0xbdb18c57	-0.08669346
40	0x3d88767e	0.066632256
41	0xbced229b	-0.028947165
42	0x3db80c56	0.08986728
43	0x3df3eccc	0.119104
44	0x3d033761	0.032035235
45	0xbd03861a	-0.03211031
46	0x3cd3e445	0.025865683
47	0x3de6d211	0.11270536
48	0xbdc8a308	-0.09796721
49	0x3d99ff1f	0.075193636
50	0xbdc97027	-0.098358445
51	0x3ddf4a1a	0.109028056
52	0x3da96b92	0.082724705
53	0x3df02cca	0.11727293
54	0xbcbe2852	-0.023212586
55	0x3da9fe1b	0.0830042
56	0xbdcc6b67	-0.09981423
57	0xbdc73479	-0.09726805
58	0xbdc52c29	-0.096275635
59	0x3dc6e00a	0.09710701
60	0x3d7fd56c	0.062459394
61	0xbd2c89e0	-0.042123675
62	0x3da3d29c	0.07999155
63	0xbd92bfbd	-0.071654774
64	0x3d94764e	0.07249127
65	0x3d850d33	0.06496658
66	0x3d26d324	0.040728703
67	0xbdaed888	-0.08537394
68	0x3ddd914d	0.108187295
69	0x3db1d09c	0.08682367
70	0xbc9f4d3e	-0.019446012
71	0x3e094191	0.13403918
72	0xbd9cfb06	-0.076650664
73	0x3d7f013c	0.062257037
74	0x3da17ce7	0.07885151
75	0xbd4a8bf0	-0.04944986
76	0xbdcba1e4	-0.099429876
77	0xbd269c7f	-0.04067659
78	0xbdca8bf2	-0.09889974
79	0xbdb1c822	-0.086807504
80	0xbc895086	-0.01676203
81	0xbd1ebd83	-0.03875495
82	0xbcfb5f35	-0.030685047
83	0x3d68ec11	0.056865755
84	0x3dd2be2c	0.10290179
85	0xbb58dbb7	-0.0033089945
86	0xbc613653	-0.013745862
87	0x3d29d451	0.041462246
88	0xbcaefd1f	-0.021360932
89	0x3c769a34	0.015051413
90	0x3d9451ed	0.072421886
91	0xbd4f07e3	-0.05054463
92	0x3d5f19ff	0.05446815
93	0x3c2b4577	0.010453573
94	0xba7382fb	-0.0009289232
95	0x3ddbe15b	0.107363425
96	0xbcf9cd01	-0.030493261
97	0xbda99cb4	-0.08281842
98	0xbdbef543	-0.09324124
99	0x3ce8741f	0.028375683
100	0x3cec7d83	0.028868442
101	0xbd95877e	-0.07301234
102	0xbd2ec9c1	-0.042672876
103	0xbdcc49e8	-0.09975034
104	0x3bae911a	0.005327356
105	0xbcd1a28c	-0.025590204
106	0xbd62113e	-0.055192225
107	0x3db939b2	0.09044208
108	0x3d0af078	0.033920735
109	0xbde4379f	-0.111434214
110	0x3dc5897b	0.09645363
111	0x3dfbb39c	0.12290117
112	0xbd780844	-0.060554758
113	0x3dc9ad02	0.09847452
114	0xbd0dc2e2	-0.034609683
115	0x3de8f7b0	0.11375368
116	0x3db9e743	0.09077313
117	0x3d5883b8	0.05285999
118	0x3de07b7e	0.10961054
119	0x3d812a5e	0.06306909
120	0xbc4b6040	-0.0124130845
121	0x3d7852e0	0.06062591
122	0x3dfe0f63	0.124052785
123	0x3d8e2257	0.069401436
124	0xbc80a467	-0.015703393
125	0xbd9856a5	-0.07438401
126	0x3da030f2	0.078218356
127	0xbc8f84d9	-0.017519401
128	0xbdcfb589	-0.10142047
129	0x3db56d84	0.08858779
130	0xbd3b2aad	-0.045694996
131	0x3dc063fe	0.09394072
132	0xbcef0065	-0.029174993
133	0xbd1ae105	-0.03781225
134	0x3dd730b9	0.1050734
135	0xbdd3ccf6	-0.103418276
136	0xbd2733bd	-0.040820826
137	0x3def5433	0.116859816
138	0xbdc9a7bb	-0.09846445
139	0xbd408557	-0.047002163
140	0xbdaf596b	-0.08561977
141	0x3dc141dc	0.0943639
142	0xbd5ac651	-0.053411786
143	0xbd8946ab	-0.06702932
144	0xbd89f530	-0.06736219
145	0xbc20f192	-0.00982322
146	0xbc0435b7	-0.008069447
147	0xbd40a034	-0.04702778
148	0xbe06775f	-0.13131474
149	0x3c976cfc	0.018484585
150	0xbda832e0	-0.08212829
151	0x3dc6b91c	0.097032756
152	0xbc975212	-0.018471751
153	0x3daf6517	0.08564203
154	0xbc06d233	-0.008228826
155	0xbd69614f	-0.056977566
156	0x3dc2d138	0.095125616
157	0xbdd7ba2f	-0.105335586
158	0xbdd2863a	-0.10279508
159	0x3c4ad222	0.012379201
160	0xba873f3b	-0.0010318527
161	0x3d9eae86	0.077481315
162	0x3dc21cf2	0.09478177
163	0xbd83a27f	-0.06427478
164	0x3c828e63	0.015937036
165	0xbdc210d4	-0.09475866
166	0x3ddbd168	0.107333004
167	0x3d39adeb	0.045331877
168	0xbdf8ec72	-0.12154473
169	0x3da5f67d	0.081036545
170	0xbd04389a	-0.032280542
171	0xbd7c1b3b	-0.061549406
172	0x3b989a84	0.0046570916
173	0x3b845bfb	0.0040392852
174	0xbd872172	-0.06598176
175	0x3c815889	0.015789287
176	0xbd4cc1fc	-0.049989685
177	0x3dcea895	0.10090748
178	0xbd7ad224	-0.061235562
179	0x3c5b8f37	0.013400844
180	0x3dcba80e	0.09944163
181	0x3d95bf8d	0.07311926
182	0xbdec7b25	-0.115469255
183	0x3dd7fb0a	0.10545929
184	0xbb86895f	-0.0041057314
185	0xbdcc87c3	-0.09986832
186	0xbe08ab10	-0.13346505
187	0x3d8a9e27	0.067684464
188	0xbd8e4770	-0.06947219
189	0x3d92c0ec	0.07165703
190	0x3df0fe78	0.11767286
191	0x3d3dcf57	0.046340313
192	0xbdab2f6b	-0.08358654
193	0x3dfb1d3b	0.12261435
194	0x3c3563a2	0.011071118
195	0xbc15675d	-0.009118882
196	0xbcc2a9d0	-0.023762614
197	0xbdfd753b	-0.123758756
198	0x3d32d757	0.043662395
199	0xbdbba0db	-0.0916154
200	0x3dcb67db	0.09931918
201	0xbd01631e	-0.031588666
202	0xbd82e8c8	-0.06392056
203	0x3d6806a4	0.056646958
204	0xbd81719c	-0.063204974
205	0x3d14956c	0.036275312
206	0xbd5c1135	-0.053727347
207	0xbd4d7136	-0.050156794
208	0xbe00834b	-0.12550084
209	0x3dd547a1	0.10414053
210	0x3d049278	0.032366246
211	0xbda52dde	-0.08065389
212	0xbdaa2683	-0.08308127
213	0x3d9afc79	0.075676866
214	0x3ddcf3da	0.107886985
215	0xbd53d8f5	-0.05172058
216	0x3d40e018	0.047088712
217	0x3dbe1de8	0.09283048
218	0xbd6ff44b	-0.058582585
219	0x3df3b306	0.118993804
220	0x3d7ab01f	0.06120312
221	0xbe0e7899	-0.13913192
222	0x3de57cf0	0.112054706
223	0x3abecf37	0.0014557604
224	0xbd40ca01	-0.047067646
225	0xbde35b60	-0.11101413
226	0x3d8bdfb5	0.06829778
227	0x3ddb6426	0.10712461
228	0xbda5b845	-0.08091787
229	0xbde448e5	-0.11146716
230	0xbccfe3d5	-0.025377193
231	0x3da7e577	0.08198064
232	0xbe030eef	-0.12798665
233	0xbdbad547	-0.09122711
234	0x3dfc7aae	0.12328087
235	0xbcedabd2	-0.029012594
236	0xbd8156d5	-0.0631539
237	0xbdb1cdd4	-0.08681837
238	0xb95ada73	-0.00020871479
239	0x3dc88b6b	0.09792217
240	0x3dafaadc	0.08577511
241	0x3d7cb6a2	0.06169761
242	0x3de1a7a7	0.11018305
243	0x3ded01df	0.115726225
244	0xbddd4e75	-0.1080598
245	0xbd7f6219	-0.062349413
246	0x3df53084	0.11972144
247	0x3d189d78	0.03725955
248	0x3e03b4ac	0.1286189
249	0xbb83ab99	-0.004018259
250	0x3d050570	0.03247589
251	0xbc351375	-0.011052002
252	0x3d614323	0.054995667
253	0x3d4b9f80	0.049712658
254	0xbdcd2b31	-0.10018004
255	0xbd2f1a20	-0.042749524

linear1.bias f4 [8]
0	0xbd3b3e7c	-0.045713887
1	0xbd255f06	-0.040373825
2	0x3dbc310d	0.09189043
3	0xbd29d99a	-0.041467287
4	0x3bc1ebe7	0.0059180143
5	0x3d5d9389	0.05409578
6	0x3dcdbe7e	0.10046099
7	0xbe0ac329	-0.1355101

linear2.weight f4 [59, 8]
0	0x3d43e64b	0.047827046
1	0x3deb8d79	0.11501593
2	0xbe851e8a	-0.25999862
3	0x3e8c0803	0.27349862
4	0xbea6b4a1	-0.32559684
5	0xbe586316	-0.21131548
6	0x3e8d9dd8	0.27659488
7	0x3dab29cb	0.08357581
8	0xbd8b5e6b	-0.06805118
9	0xbea9727f	-0.33095166
10	0xbe97a5c5	-0.2961866
11	0xbc74eed4	-0.014949519
12	0x3e98215a	0.29712945
13	0x3e74d2ac	0.2390849
14	0xbe46aee6	-0.19402656
15	0xbe883053	-0.26599368
16	0xbcf7215e	-0.030167278
17	0x3e9e2978	0.30891013
18	0x3cd61379	0.026132332
19	0xbeaded7d	-0.33970252
20	0x3e96b5ac	0.2943548
21	0x3d9997ea	0.074996784
22	0xbd63a2bf	-0.05557513
23	0xbe699562	-0.22810891
24	0xbe90626f	-0.282001
25	0x3e232578	0.15932262
26	0xbd90712e	-0.07052837
27	0x3e321911	0.17392375
28	0x3e02768a	0.12740532
29	0xbe5f885d	-0.21829362
30	0xbb6e47bd	-0.0036358677
31	0x3e2154d9	0.15755023
32	0xbeaf11f1	-0.34193376
33	0xbe264418	-0.16236913
34	0x3e4d1d59	0.20030726
35	0x3c161921	0.009161265
36	0xbcd06833	-0.025440311
37	0x3ea829e4	0.3284446
38	0x3a638757	0.000867953
39	0xbe20312b	-0.15643756
40	0x3e9722f7	0.29518864
41	0x3e885f01	0.26634982
42	0xbe07e9c0	-0.13272762
43	0xbe82a9dc	-0.25520217
44	0x3d6d00ae	0.057861976
45	0xbe556925	-0.2084089
46	0xbe8d9680	-0.27653885
47	0x3e8d1fe3	0.2756339
48	0xbead667e	-0.33867258
49	0x3e869a5b	0.2628964
50	0xbeab74be	-0.33487505
51	0x3e9c60cf	0.3054261
52	0xbe4cc0ed	-0.1999547
53	0x3e61db86	0.22056398
54	0xbd9e36d2	-0.077253
55	0xbe8ec4da	-0.2788456
56	0xbd9f0253	-0.07764115
57	0xbeac8b4c	-0.33700025
58	0x3ea5cd32	0.32383114
59	0xbe471aae	-0.19443771
60	0xbd5b2505	-0.0535021
61	0xbe0fd8c2	-0.1404753
62	0x3e93d19a	0.2887085
63	0xbc0726e0	-0.008249015
64	0xbd55954a	-0.052144326
65	0x3e079ffb	0.13244621
66	0x3e7074b8	0.23482025
67	0xbd9b559c	-0.07584688
68	0xbe5fbe64	-0.21849972
69	0xbe999c14	-0.3000189
70	0xbe8353c6	-0.25649852
71	0xbe5ab488	-0.2135793
72	0x3e240359	0.16016902
73	0x3eac188d	0.3361248
74	0xbe4b8303	-0.19874196
75	0x3e5fe5dc	0.21865028
76	0xbbe3569e	-0.006937816
77	0x3e747721	0.23873569
78	0x3e305189	0.17218603
79	0x3e9de1b7	0.3083627
80	0x3e80c0d5	0.2514712
81	0x3d0b2c67	0.033977892
82	0xbe2c5e4e	-0.1683285
83	0x3eab91ef	0.33509776
84	0xbe333690	-0.17501283
85	0xbdc1d352	-0.09464134
86	0xbbdb283f	-0.0066881473
87	0xbe675a5c	-0.22593063
88	0xbe150b8c	-0.14555186
89	0xbe5bb808	-0.21456921
90	0xbdb7b0fc	-0.08969304
91	0x3ea003bd	0.31252852
92	0xbe993dfa	-0.29930097
93	0xbd3e5247	-0.046465185
94	0xbccd7d7f	-0.025084255
95	0x3e102e23	0.140801
96	0x3e97a5fc	0.29618824
97	0x3e967cde	0.2939214
98	0x3ccbeef6	0.024894219
99	0xbe32c833	-0.17459182
100	0x3e9686b0	0.29399633
101	0xbe826e92	-0.25474983
102	0xbe7adffd	-0.24499507
103	0xbe8b116c	-0.2716173
104	0xbe594aea	-0.21219984
105	0x3d00b665	0.031423945
106	0xbe3fd11b	-0.18732111
107	0x3eb0a7d1	0.34503034
108	0xbdcd6145	-0.10028318
109	0xbe528c53	-0.20561342
110	0x3da02f5d	0.07821534
111	0x3daffa38	0.08592647
112	0x3e360bed	0.17777987
113	0xbe094f27	-0.134091
114	0xbe5b52e9	-0.21418346
115	0xbe95eb9f	-0.29281327
116	0x3e61aff0	0.22039771
117	0x3e211d8f	0.15733932
118	0x3e50c7b7	0.20388685
119	0x3e237e6d	0.15966196
120	0x3e8fb512	0.28067833
121	0xbc5f71a7	-0.013637937
122	0xbe81e74e	-0.25371784
123	0xbeb26de8	-0.34849477
124	0x3d175338	0.036944598
125	0xbe860a8a	-0.26179916
126	0x3eae4fc1	0.34045222
127	0xbe56cdbc	-0.20976919
128	0x3e9ed4e9	0.31021813
129	0x3e394e55	0.18096288
130	0x3df2c8de	0.118547186
131	0xbe9bcc4d	-0.30429307
132	0xbdc5e4f5	-0.09662811
133	0x3e5eab62	0.21745065
134	0x3e76926b	0.24079292
135	0xbdf2b101	-0.11850167
136	0x3d0778af	0.033074077
137	0xbeb1a08c	-0.346928
138	0xbd8dd327	-0.0692504
139	0xbdafd3d1	-0.08585323
140	0xbe28cc1f	-0.16484116
141	0x3eaba215	0.33522096
142	0x3ea00de4	0.31260598
143	0x3e35a771	0.17739655
144	0x3e775ff0	0.24157691
145	0xbe01012d	-0.12598105
146	0xbd8c6ba7	-0.068564706
147	0x3d522169	0.051301394
148	0xbe9ace2e	-0.30235428
149	0x3e45de6b	0.19323127
150	0xbdbe648b	-0.09296521
151	0x3d2adf85	0.04171707
152	0xbea32f72	-0.31872135
153	0x3e926d12	0.2859884
154	0x3e9c33b6	0.30508202
155	0xbe0a29d7	-0.13492523
156	0xbe81fc0f	-0.25387618
157	0x3d06c228	0.032900006
158	0x3d98bd40	0.074579716
159	0xbe9de650	-0.30839777
160	0xbd7702b7	-0.060305323
161	0xbe4ea867	-0.20181428
162	0x3e98e59c	0.29862678
163	0x3e51c723	0.20486121
164	0xbe3bbb1e	-0.18333098
165	0xbe8886bd	-0.26665297
166	0xbe1b1118	-0.1514324
167	0x3e96721c	0.29383934
168	0x3e6f6204	0.23377234
169	0x3d92c507	0.07166486
170	0x3e898ab2	0.2686363
171	0xbe2e76b1	-0.17037465
172	0x3ea39e74	0.31956828
173	0x3df1cd40	0.118067265
174	0x3e3790ef	0.17926382
175	0x3e17fe5b	0.14843123
176	0x3d216e40	0.039411783
177	0xbe857be8	-0.26071095
178	0x3cfc273e	0.03078043
179	0xbeb079f9	-0.34468058
180	0xbcaeae18	-0.021323249
181	0xbe169b47	-0.14707671
182	0x3e5b0ea4	0.21392304
183	0xbe8f1eb9	-0.27953127
184	0x3e8e56be	0.27800554
185	0x3e7ae2a1	0.24500515
186	0x3e0395d6	0.12850127
187	0x3e4fbc4c	0.20286673
188	0x3eaff86c	0.34369218
189	0x3d3812a6	0.04493966
190	0x3e89f5b1	0.2694526
191	0x3e3671c0	0.1781683
192	0x3e0194bf	0.12654398
193	0x3c404ba3	0.011736783
194	0x3dbbbdab	0.09167036
195	0xbc9c1e23	-0.019057339
196	0x3eaacf56	0.3336131
197	0xbd9975e3	-0.07493188
198	0xbe62bee7	-0.22143136
199	0xbe3e0c39	-0.1855935
200	0xbca56457	-0.020189447
201	0xbe963e60	-0.29344463
202	0x3e9a159a	0.30094606
203	0xbdfc44a3	-0.12317779
204	0x3ccf6c99	0.025320338
205	0x3e8121ee	0.252212
206	0x3b741fff	0.0037250516
207	0xbeaeb815	-0.34124818
208	0xbe07f0e2	-0.13275483
209	0x3da69bc9	0.081351824
210	0x3e4b9589	0.19881262
211	0xbe48c148	-0.19604981
212	0xbe206176	-0.15662178
213	0xbd968bcc	-0.07350883
214	0xbe9b0dca	-0.30283958
215	0xbe5303b8	-0.20606887
216	0x3e5f3209	0.2179643
217	0xbe9666c3	-0.29375276
218	0xbe549c4e	-0.2076275
219	0xbe459ec5	-0.19298847
220	0xbe1ca8f3	-0.15298824
221	0x3e9b44d2	0.30325943
222	0xbe8b6f9b	-0.27233586
223	0x3e9bcd8a	0.3043025
224	0x3da4e40d	0.0805131
225	0x3e1594c0	0.14607525
226	0x3d04f39a	0.03245888
227	0xbe1b4105	-0.15161522
228	0x3dc278e3	0.094957136
229	0xbe33e50c	-0.17567843
230	0x3e69be60	0.22826529
231	0x3dc30126	0.095217034
232	0xbea96589	-0.33085278
233	0xbeac35c7	-0.3363478
234	0x3c921ac0	0.017835021
235	0x3e061688	0.13094532
236	0xbd42570c	-0.047446296
237	0xbea7583e	-0.3268451
238	0xbe477bbc	-0.19480795
239	0xbe9ad95e	-0.30243963
240	0x3e50c5f0	0.20388007
241	0xbea7812f	-0.32715747
242	0xbd1b487a	-0.037910916
243	0xbbb41b01	-0.005496383
244	0x3ea3fcca	0.320288
245	0xbe2b9594	-0.16756278
246	0x3d3f7f50	0.046752274
247	0x3e2e31fa	0.17011252
248	0x3e772e13	0.2413867
249	0xbdec9b86	-0.11553101
250	0x3e80fe4e	0.2519402
251	0xbe1ad2d1	-0.15119483
252	0x3e203f38	0.15649116
253	0x3eb23c14	0.3481146
254	0xbe9d4ec1	-0.30724147
255	0xbe55e7db	-0.20889227

linear2.bias f4 [59]
0	0x3cff00db	0.031128338
1	0xbe1f82fe	-0.15577313
2	0x3e1e8ae5	0.15482672
3	0xbea533d1	-0.32266095
4	0xbeaf5edf	-0.34252068
5	0x3e19f3c9	0.15034403
6	0x3d9ffd43	0.07811978
7	0x3e8169eb	0.25276121
8	0xbbd8f276	-0.0066207005
9	0x3ccc7a61	0.024960699
10	0xbd57373a	-0.052542903
11	0x3d8f322b	0.06991991
12	0xbe523e6d	-0.20531626
13	0xbc4ad20c	-0.012379181
14	0xbd11e9b7	-0.03562328
15	0xbe821b28	-0.25411344
16	0x3e8a60d5	0.27027002
17	0xbdb603a1	-0.08887411
18	0xbd984d47	-0.074366145
19	0xbe6efce3	-0.23338656
20	0x3d651b6d	0.05593436
21	0x3e3eed15	0.18645127
22	0x3e643505	0.2228585
23	0x3e153e98	0.14574659
24	0xbe93be60	-0.28856182
25	0xbe4c3675	-0.19942649
26	0x3ea55f0b	0.32299075
27	0x3eaa6b7b	0.33285126
28	0xbe7fb988	-0.24973118
29	0x3e85c2a5	0.26125064
30	0x3ea8068e	0.328175
31	0xbe553d81	-0.20824243
32	0xbd15e4f8	-0.036595315
33	0xbd4d54ff	-0.050129887
34	0x3e3414cb	0.17586057
35	0xbdd54809	-0.1041413
36	0xbd11ecda	-0.03562627
37	0xbead463b	-0.33842644
38	0x3e4cea72	0.20011309
39	0x3ea59980	0.32343674
40	0xbe784c50	-0.24247861
41	0xbe6a37dc	-0.22872871
42	0x3e91b60a	0.28459197
43	0xbccf4fd5	-0.025306622
44	0xbe8bed6b	-0.27329573
45	0x3e32f3d3	0.17475824
46	0xbe6b757e	-0.22994038
47	0x3eabac05	0.33529678
48	0x3e8b0249	0.2715018
49	0xbd98fd2c	-0.07470164
50	0xbdf651e0	-0.12027335
51	0xbe81536d	-0.2525896
52	0x3e810a14	0.25203001
53	0xbe7fef82	-0.24993709
54	0xbe920d23	-0.28525648
55	0xbea15c69	-0.31515816
56	0x3d2e75bd	0.042592753
57	0x3e838ae6	0.2569191
58	0xbeb056db	-0.34441265

conv2.weight f4 [5, 59, 1, 1]
0	0xbdebdf4d	-0.115172006
1	0xbcf91642	-0.030406121
2	0x3dcd9ce6	0.100396916
3	0xbcaf49ba	-0.02139746
4	0xbd76d2fb	-0.0602598
5	0x3dd1f7e1	0.10252357
6	0x3b843952	0.0040351534
7	0xbd66bcfa	-0.056332566
8	0xbd9393c2	-0.07205917
9	0xbdcd9f4c	-0.10040149
10	0x3d5e9913	0.0543452
11	0xbcd0cb1e	-0.025487479
12	0xbd381379	-0.044940446
13	0xbd86e3cc	-0.065864176
14	0x3d89805c	0.06713936
15	0xbd6463aa	-0.05575911
16	0x3c9f8178	0.019470915
17	0x3c627c8b	0.013823639
18	0x3df24855	0.118302025
19	0xbdb246fd	-0.08704946
20	0xbd76e667	-0.060278323
21	0x3d91b9c6	0.071155116
22	0xbccd8a70	-0.025090426
23	0xbdb8ad18	-0.0901739
24	0x3cb6fc8a	0.022337217
25	0xbca0dc58	-0.019636318
26	0xbd73dbee	-0.059535913
27	0xbdc4e0a2	-0.09613158
28	0xbc94637d	-0.018113846
29	0x3d423a3a	0.04741881
30	0xbd31dc39	-0.04342291
31	0x3d850c7f	0.06496524
32	0x3df8afdb	0.12142917
33	0xbd29ad3f	-0.041424986
34	0xbca564c9	-0.02018966
35	0xbdab8044	-0.08374074
36	0xbd17d25d	-0.037065852
37	0x3db61b75	0.08891956
38	0xbded73f0	-0.11594379
39	0x3d93ee7d	0.072232224
40	0x3cfe73a7	0.031061007
41	0x3acbb8ff	0.0015542804
42	0xbd6bc1b1	-0.057557765
43	0xbcb25ef4	-0.021773793
44	0xbc6520ed	-0.013984901
45	0x3dcd7b27	0.10033255
46	0xbd7eedf9	-0.062238667
47	0xbd61f548	-0.05516556
48	0x3c8f9ecf	0.01753178
49	0xbd2c5c03	-0.042079937
50	0xbd47ce42	-0.048780687
51	0x3dc044a3	0.093880914
52	0x3d483e1d	0.04888736
53	0x3d613b5d	0.054988254
54	0x3da10c07	0.07863622
55	0x3d58b3dd	0.052905906
56	0xbd6d775e	-0.057975166
57	0xbd32bfe0	-0.043640018
58	0xbd1b7bac	-0.03795974
59	0xbda924bf	-0.08258962
60	0xbd7085be	-0.058721296
61	0x3d5e87f5	0.054328877
62	0xbc26e8d7	-0.010187349
63	0xbd992b72	-0.0747899
64	0xbde8754f	-0.113505
65	0xbdd237bd	-0.102645375
66	0xbddda847	-0.10823112
67	0xbd548581	-0.05188513
68	0x3dae7b7e	0.08519648
69	0x3db7d7bb	0.08976694
70	0xbd379582	-0.044820316
71	0x3dc4b647	0.09605079
72	0x3ce80df2	0.028326962
73	0xbdea8614	-0.114513546
74	0xbda29299	-0.079381175
75	0xbd0bf2e9	-0.034167204
76	0xbd921bea	-0.071342304
77	0x3b98c085	0.004661622
78	0xbd04b4df	-0.032399055
79	0x3d243ab2	0.04009504
80	0xbd227b80	-0.03966856
81	0x3c42bee1	0.011886329
82	0x3d6e4f49	0.05818108
83	0xbc94f984	-0.018185385
84	0xbd1bd8e8	-0.038048655
85	0x3b851f5c	0.004062576
86	0x3ce5d891	0.028057368
87	0x3d7957c5	0.06087472
88	0xbd788ad2	-0.060679264
89	0x3c9ed015	0.01938633
90	0x3d45750b	0.048207324
91	0x3e0012cf	0.12507175
92	0xbdc57a68	-0.09642488
93	0xbd0bf6ce	-0.03417092
94	0xbd34d0df	-0.044144507
95	0x3e00b5ce	0.12569353
96	0xbdb9ce96	-0.09072606
97	0x3d568fe9	0.052383337
98	0x3c00aea0	0.007854134
99	0xbce58703	-0.02801848
100	0x3cd172bd	0.025567407
101	0xbdc7aa76	-0.0974931
102	0x3e03f26d	0.12885447
103	0x3d935432	0.07193793
104	0x3d5fb302	0.054614075
105	0x3ddbab00	0.10725975
106	0x3df69de9	0.12041838
107	0x3b4b2438	0.003099693
108	0xbc2ddaa0	-0.010611206
109	0x3d242ffb	0.04008482
110	0x3cc2ba35	0.023770431
111	0xbcd0417d	-0.025421852
112	0x3cdf9954	0.027294792
113	0x3d3a2642	0.04544664
114	0x3cfa7af6	0.03057621
115	0x3dfc3ca5	0.123162545
116	0x3bcd86d5	0.0062721767
117	0x3ddab08a	0.106782034
118	0xbcc043ca	-0.023469824
119	0xbd17777f	-0.036979195
120	0xbdb9e4e0	-0.090768576
121	0x3d40a50b	0.047032397
122	0xbdb7cad4	-0.08974233
123	0xbb48e1d2	-0.0030652178
124	0x3c97d9d7	0.018536491
125	0x3c11b001	0.00889206
126	0xbdb94fd1	-0.09048427
127	0xbdcd6eb8	-0.100308836
128	0xbc84355e	-0.016138729
129	0x3b60edc9	0.0034321418
130	0xbc9b3b8b	-0.01894929
131	0x3cc6b39b	0.024255564
132	0xbd12351a	-0.035695173
133	0x3dae1d18	0.08501643
134	0xbe0c7184	-0.13715178
135	0x3dace68f	0.08442413
136	0x3e00e39e	0.12586829
137	0x3d955866	0.07292251
138	0xbcadce20	-0.021216452
139	0xbcb3c59b	-0.021944812
140	0xbdb9cc0f	-0.09072124
141	0xbde1e9e9	-0.11030943
142	0xbd627d75	-0.055295426
143	0x3da7793c	0.081774205
144	0x3d55514d	0.052079488
145	0xbdf5a736	-0.119947836
146	0xbdf2f4a5	-0.118630685
147	0x3e0841de	0.13306376
148	0x3db9aec5	0.09066538
149	0x3d058a61	0.03260267
150	0x3d908865	0.07057265
151	0xbdb0a2e3	-0.08624818
152	0x3d917b16	0.07103555
153	0x3d878d7d	0.066187836
154	0xbc49518a	-0.012287507
155	0x3c8e7cb0	0.01739344
156	0x3d900dfb	0.070339166
157	0x3a912e3d	0.0011076402
158	0xbde49cb3	-0.111627005
159	0xbde0468a	-0.10950954
160	0x3e0072ca	0.12543789
161	0xbd4d9c7d	-0.050198067
162	0x3de8cbb6	0.1136698
163	0x3d9a1ba1	0.07524801
164	0xbdd39d42	-0.10332729
165	0xbcad9bbe	-0.021192428
166	0xbdb2d532	-0.0873207
167	0xbc0a06d1	-0.008424477
168	0xbe005913	-0.12533979
169	0x3df00262	0.117192045
170	0xbd09bebd	-0.033629168
171	0xbd4b2a90	-0.049601138
172	0xbda39110	-0.07986653
173	0x3d099434	0.033588603
174	0x3de8fe0c	0.113765806
175	0xbd155677	-0.036459412
176	0x3dc58f57	0.096464805
177	0x3da9ea88	0.082966864
178	0x3b5f4150	0.003406603
179	0xbdede6f3	-0.11616316
180	0xbdb607ad	-0.08888183
181	0xbdcdbe17	-0.100460224
182	0xbdda69f3	-0.106647395
183	0xbd467994	-0.04845579
184	0x3e08a3bd	0.13343711
185	0x3d780137	0.060548034
186	0xbdc124be	-0.09430836
187	0x3d3ba5ca	0.045812406
188	0x3d8d9c1f	0.06914543
189	0xbd32cdaa	-0.043653168
190	0x3cbea927	0.023274017
191	0xbdaaf389	-0.08347232
192	0xbd5d22ec	-0.053988382
193	0xbca122a2	-0.019669835
194	0x3dc9057f	0.098155014
195	0x3dee6761	0.11640812
196	0x3d1f5dcb	0.038907807
197	0x3d2e38f7	0.042534795
198	0x3d57c9ee	0.05268281
199	0x3c95da41	0.018292548
200	0x3d534d93	0.051587652
201	0x3d4f5398	0.05061683
202	0x3ccb69c3	0.024830705
203	0xbb265295	-0.0025378813
204	0xbd8891e7	-0.06668454
205	0x3d90ddc3	0.07073548
206	0xbd32b0e6	-0.043625735
207	0xbdb3cc72	-0.08779229
208	0xbd180ea5	-0.03712334
209	0xbddb4915	-0.10707299
210	0x3df6a297	0.1204273
211	0xbdd892d8	-0.10574883
212	0xbdb27bed	-0.08715043
213	0x3dbc37f4	0.0919036
214	0x3deec9de	0.11659597
215	0xbd9f183b	-0.077682935
216	0x3daa91af	0.08328568
217	0x3d5df4b9	0.054188464
218	0xbdebb2d8	-0.11508721
219	0x3c7eb80b	0.015546809
220	0x3df201d6	0.118167564
221	0x3d77e901	0.060524944
222	0xbcc2d014	-0.02378086
223	0xbdf585ef	-0.119884364
224	0xbdd92caf	-0.10604226
225	0xbd3c65bd	-0.045995463
226	0x3beaaeb1	0.007161938
227	0xbdb033d4	-0.086036354
228	0x3dbc77b0	0.09202516
229	0x3d31e9b2	0.04343576
230	0x3d2a3ee6	0.04156389
231	0xbd7b0051	-0.0612796
232	0xbd8bf4f7	-0.06833833
233	0xbd9ef10d	-0.077608205
234	0x3d62ce21	0.05537236
235	0x3d5350f6	0.051590882
236	0x3bd0efef	0.0063762586
237	0xbda99f6c	-0.082823604
238	0xbd0fac86	-0.03507664
239	0x3da2f90f	0.079576604
240	0xbcafb5b3	-0.021448946
241	0x3dd5de45	0.10442785
242	0x3dda56df	0.106611006
243	0x3cdd5046	0.027015816
244	0xbccdd806	-0.025127422
245	0x3d847c67	0.0646904
246	0x3dddd9f2	0.108325854
247	0xbc945b10	-0.018109828
248	0x3d10c569	0.035344515
249	0xbdbb3782	-0.09141447
250	0xbde16d71	-0.110072024
251	0x3cee94c0	0.029123664
252	0x3d1fbdfa	0.038999535
253	0x3ddda3e8	0.10822278
254	0x3d18e678	0.037329167
255	0xbd8c79e4	-0.06859186

conv2.bias f4 [5]
0	0x3d3d43cc	0.046207234
1	0xbd6e7c66	-0.058224104
2	0xbdc963d1	-0.098334916
3	0x3d67b7b8	0.056571692
4	0x3c9b184f	0.01893249

attention.W_q.weight f4 [50, 5]
0	0x3d1c391a	0.038140394
1	0xbedab2ab	-0.42714438
2	0xbe649687	-0.22323047
3	0xbec4f0fa	-0.384651
4	0xbee9a8a7	-0.45636484
5	0x3d8e8ec4	0.06960824
6	0x3e17a8bc	0.14810461
7	0x3e9c91fb	0.30580124
8	0xbdd630b5	-0.10458509
9	0xbd92ca51	-0.07167495
10	0x3eb72a7a	0.35774595
11	0x3ec62059	0.38696554
12	0x3cf5c301	0.030000212
13	0xbdcb4ccd	-0.09926758
14	0x3dc34c72	0.09536065
15	0x3e4ab060	0.19793844
16	0x3e2ccb0f	0.16874336
17	0xbd884114	-0.06653038
18	0xbedf6776	-0.43633622
19	0xbec02330	-0.37526846
20	0xbe362c64	-0.17790371
21	0xbe182de3	-0.14861254
22	0xbe00cc3c	-0.12577909
23	0x3ecbf928	0.3983853
24	0x3e535e85	0.20641525
25	0x3ea5453a	0.32279378
26	0xbd716444	-0.05893351
27	0xbed0bcc5	-0.4076902
28	0xbe8fb494	-0.28067458
29	0xbebd311a	-0.36951524
30	0x3dbd7fb5	0.09252874
31	0xbd8a28b3	-0.06746044
32	0xbee0557b	-0.43815216
33	0xbdf5fbb7	-0.120109014
34	0xbe885fc5	-0.26635566
35	0x3e9a4e8d	0.30138054
36	0xbe70a147	-0.23499022
37	0x3de235a5	0.11045388
38	0xbeb6baeb	-0.35689482
39	0xbd569871	-0.052391473
40	0xbedf04c5	-0.43558326
41	0xbea2623c	-0.31715572
42	0xbed99cba	-0.42502385
43	0xbeaea6bc	-0.34111583
44	0xbe052338	-0.13001716
45	0xbe88256b	-0.26591048
46	0xbe90f191	-0.283093
47	0x3ea4749d	0.3212022
48	0x3e2eafd4	0.1705926
49	0xbdf4f64a	-0.119610384
50	0xbe2ae829	-0.16690125
51	0x3e7e88c4	0.2485686
52	0x3eae5f44	0.34057057
53	0xbe87156f	-0.2638354
54	0x3e6ff785	0.23434265
55	0xbe97d146	-0.2965185
56	0xbc834ef9	-0.016028868
57	0xbe0ea7b5	-0.13931163
58	0x3e43a87f	0.19107245
59	0xbe32324a	-0.17401996
60	0x3ec5d66b	0.3864015
61	0xbe99505c	-0.29944122
62	0xbecedf1f	-0.40404603
63	0x3edc47fb	0.43023667
64	0x3e1ba1be	0.15198418
65	0x3e8ae3b5	0.27126852
66	0x3d3883e5	0.04504766
67	0xbe21523d	-0.15754028
68	0x3ecfa289	0.40553692
69	0xbc421de2	-0.011847945
70	0xbdaf8773	-0.08570757
71	0x3d884cce	0.06655274
72	0x3db09d38	0.08623737
73	0xbe212c25	-0.15739496
74	0x3eac8490	0.33694887
75	0x3d5965af	0.05307549
76	0xbec42b08	-0.3831408
77	0xbe62599b	-0.22104494
78	0xbeaa9e1a	-0.33323747
79	0x3d8d6993	0.06904902
80	0xbe78adc9	-0.24285044
81	0xbe9cdc98	-0.3063705
82	0xbc8dd709	-0.01731445
83	0x3dd76217	0.10516756
84	0x3ee492f9	0.4464338
85	0x3e90a11b	0.28247914
86	0x3db54a14	0.0885202
87	0x3ed32e1c	0.41246116
88	0x3e8fe64d	0.28105393
89	0x3a673a2d	0.00088206196
90	0x3e8acb65	0.27108303
91	0x3ea51d9a	0.32249147
92	0x3e2cd8f5	0.16879638
93	0x3ecf0fe7	0.4044182
94	0x3e907613	0.28215083
95	0xbe76d591	-0.24104907
96	0xbec67f93	-0.38769206
97	0xbe7c6b08	-0.24650204
98	0x3d7a71c0	0.061143637
99	0xbeb79710	-0.3585744
100	0xbeab1daf	-0.33421084
101	0x3e44b5d5	0.19209988
102	0xbe0bea82	-0.13663676
103	0xbe0ea2c0	-0.13929272
104	0xbe8e4382	-0.2778588
105	0xbd8c30b4	-0.06845227
106	0xbe494106	-0.1965371
107	0x3e63418d	0.22192974
108	0x3e0c8821	0.13723804
109	0xbe0f83f8	-0.14015186
110	0xbeb521f2	-0.3537746
111	0x3caab378	0.02083753
112	0xbe0e5a77	-0.13901697
113	0xbe46fc79	-0.19432248
114	0xbecc030f	-0.39846084
115	0x3eb0e44d	0.3454918
116	0xbe8f30c6	-0.279669
117	0xbecd3dee	-0.4008631
118	0xbe80511b	-0.2506188
119	0x3ed97541	0.4247227
120	0x3bacca41	0.005273134
121	0x3ea211d1	0.31654218
122	0x3e2408d7	0.16018997
123	0x3ee169ea	0.4402612
124	0xbde5d352	-0.11221947
125	0xbdd9b059	-0.10629339
126	0x3dcb8c37	0.09938853
127	0xbe3f8c47	-0.18705855
128	0xbea29973	-0.31757697
129	0xbde31d26	-0.11089544
130	0xbee60f63	-0.44933614
131	0xbcaef4f2	-0.021357033
132	0x3ed014f1	0.40640977
133	0x3e0a7f35	0.13525088
134	0x3dbd1aa4	0.09233597
135	0xbeb97c42	-0.36227614
136	0xbeb2d7c9	-0.34930256
137	0xbeca93ac	-0.3956579
138	0xbdf26711	-0.118360646
139	0x3d1f907c	0.03895615
140	0xbec9e9c1	-0.39436153
141	0x3e5d2371	0.21595551
142	0xbcd5ee26	-0.026114535
143	0x3e830a89	0.25593975
144	0xbeb06e2a	-0.34459049
145	0xbdfcf09d	-0.12350581
146	0xbd0c5cf9	-0.034268353
147	0xbeb6cf45	-0.3570501
148	0x3e58a830	0.21157908
149	0x3e285f19	0.16442527
150	0xbcd50f57	-0.026008291
151	0xbcacccff	-0.021093844
152	0x3ecfec11	0.40609792
153	0x3d945523	0.07242801
154	0xbedee7f5	-0.43536344
155	0xbea8f8b7	-0.33002254
156	0xbeddabb4	-0.43295062
157	0x3ed446f1	0.41460374
158	0xbd520a88	-0.051279575
159	0x3dbc8b06	0.09206204
160	0xbd3b6204	-0.04574777
161	0x3e2e64ea	0.17030683
162	0xbe523e44	-0.20531565
163	0xbe0fc828	-0.14041197
164	0x3e87afb7	0.26501247
165	0x3eb0ebd9	0.34554937
166	0xbeccdfb5	-0.40014425
167	0x3e88212f	0.26587817
168	0x3cc6aab6	0.024251323
169	0x3e803407	0.25039694
170	0x3e450c04	0.19242865
171	0x3e485cf7	0.19566713
172	0x3e151b42	0.1456118
173	0x3d71429f	0.058901425
174	0x3e02f6f6	0.1278952
175	0xbe5eb79a	-0.21749726
176	0x3ed45cfa	0.41477185
177	0x3e020bb3	0.12699775
178	0xbecdb248	-0.4017508
179	0xbed2f7a7	-0.4120457
180	0x3c80daec	0.01572939
181	0x3dad1504	0.08451274
182	0xbd58e5a7	-0.05295339
183	0x3dc656c5	0.09684519
184	0xbe4fdaef	-0.2029836
185	0xbe7db566	-0.2477623
186	0x3e8b4224	0.271989
187	0xbec77697	-0.38957664
188	0x3ecae9fe	0.39631647
189	0x3e7dd420	0.2478795
190	0xbdc62b56	-0.096762344
191	0xbebb7ee7	-0.36620256
192	0x3e3efa8f	0.18650268
193	0xbe983211	-0.29725698
194	0x3ea344fc	0.31888568
195	0xbd69d812	-0.057090826
196	0xbece0493	-0.40237865
197	0xbe83da78	-0.25752616
198	0xbee87f08	-0.45409417
199	0xbe576afa	-0.21036902
200	0xbe3b5306	-0.1829339
201	0xbc6cc2f2	-0.014450775
202	0xbe7e508b	-0.24835412
203	0xbed11adc	-0.40840805
204	0xbdc14308	-0.09436613
205	0x3da1af17	0.07894724
206	0x3ed4f497	0.41592857
207	0xbeb30b03	-0.3496934
208	0xbed76f84	-0.42077267
209	0x3e352396	0.17689356
210	0x3ec8d66f	0.392261
211	0x3e1d2753	0.15347032
212	0x3e403f09	0.18774046
213	0xbdac5e19	-0.08416385
214	0xbdabbdfb	-0.08385845
215	0x3ded02c8	0.11572796
216	0x3e0441a3	0.12915663
217	0xbd644fdd	-0.055740226
218	0x3d9bd2b8	0.07608551
219	0xbeb324a4	-0.34988892
220	0xbe9dffce	-0.30859226
221	0x3e98c754	0.29839575
222	0xbe3946b8	-0.18093383
223	0xbea9e012	-0.33178765
224	0xbd9f1f55	-0.07769648
225	0x3da1e686	0.07905297
226	0x3e8903db	0.26760754
227	0xbdbdadac	-0.09261641
228	0xbe81e2ff	-0.25368497
229	0xbeb27388	-0.34853768
230	0x3ea42d95	0.32066026
231	0xbec94ea1	-0.39317802
232	0x3c0e11dc	0.00867125
233	0xbcda849e	-0.026674565
234	0xbe9e7df2	-0.30955464
235	0xbe9672ce	-0.29384464
236	0x3e372f8b	0.1788923
237	0xbd6604ad	-0.056156803
238	0xbe98f6c9	-0.29875782
239	0xbe1f023e	-0.15528199
240	0x3e24694a	0.1605579
241	0x3e94dd1b	0.2907494
242	0xbed89e42	-0.4230824
243	0xbe9c03db	-0.3047169
244	0xbed782ad	-0.42091885
245	0x3dbfeb4e	0.09371053
246	0x3c904769	0.017612176
247	0x3e567ce5	0.20946081
248	0xbdfc0438	-0.12305492
249	0x3dddf426	0.10837583

attention.W_k.weight f4 [50, 5]
0	0x3e4b983c	0.19882292
1	0xbd18d09a	-0.037308313
2	0x3d5d117c	0.053971753
3	0xbe492caa	-0.19645944
4	0x3db360f0	0.08758724
5	0xbce08eb5	-0.027411798
6	0xbe15428f	-0.14576171
7	0xbe40c282	-0.18824199
8	0xbd6812ff	-0.05665874
9	0x3cd335c6	0.025782477
10	0x3eab48be	0.33453935
11	0xbe0c340d	-0.13691731
12	0x3edcf345	0.4315435
13	0xbe84d234	-0.25941622
14	0x3ea2ed55	0.31821695
15	0x3ec4a2b6	0.3840539
16	0x3d858208	0.06518942
17	0xbe322b20	-0.17399263
18	0xbe97089f	-0.29498765
19	0x3e8bc472	0.27298313
20	0xbd026bd5	-0.031841118
21	0x3e81879b	0.2529877
22	0x3e9f42a6	0.31105536
23	0xbc82d128	-0.015968874
24	0x3e85a1e2	0.2610007
25	0x3edd30a0	0.4320116
26	0xbe075d70	-0.13219237
27	0xbe2c7fb2	-0.16845587
28	0x3e049b15	0.12949784
29	0x3dd1e319	0.102483936
30	0x3d8c7f1f	0.06860184
31	0xbea5f153	-0.32410678
32	0x3ddf755f	0.10911059
33	0x3ec75b13	0.38936672
34	0xbd088b11	-0.03333575
35	0xbd9d97c8	-0.076949656
36	0x3ec60863	0.38678274
37	0x3edafc79	0.42770746
38	0x3e86d1f7	0.26332065
39	0xbd9687cb	-0.07350119
40	0xbebd6779	-0.36993006
41	0x3eb7fa86	0.35933322
42	0xbad04d93	-0.001589226
43	0xbedceca1	-0.43149284
44	0x3eb95e22	0.3620463
45	0x3e4b5887	0.19857989
46	0xbe69644a	-0.22792163
47	0xbe8646f9	-0.26226023
48	0x3ed061dd	0.40699664
49	0xbe92ba33	-0.28657684
50	0x3da1946d	0.07889638
51	0x3d939d82	0.072077766
52	0x3d43bde7	0.047788527
53	0xbde61b52	-0.1123568
54	0xbeb8e30b	-0.3611072
55	0x3df73fc1	0.12072707
56	0xbe98615b	-0.29761776
57	0xbeb07001	-0.34460452
58	0xbdc00e02	-0.09377672
59	0x3e69be6a	0.22826543
60	0x3ec0e8f9	0.37677744
61	0x3dfc369f	0.12315106
62	0x3eac5481	0.3365822
63	0x3e9e736b	0.30947432
64	0xbe1fa5c9	-0.15590586
65	0x3e7c2fc1	0.24627592
66	0x3dc09ea1	0.09405256
67	0xbec2976b	-0.38006148
68	0x3e8552d4	0.26039755
69	0xbe9a1d8d	-0.3010067
70	0x3e8ced1f	0.2752466
71	0xbe50b198	-0.20380247
72	0xbda61877	-0.08110135
73	0x3e7cc611	0.24684931
74	0x3ca92409	0.020647066
75	0xbe9b762a	-0.3036359
76	0xbd849124	-0.06472996
77	0xbe967ba5	-0.29391208
78	0x3ec97e6b	0.39354262
79	0x3ed2ce84	0.41173184
80	0xbe98a464	-0.2981292
81	0xbed1872e	-0.40923446
82	0x3ed263db	0.4109181
83	0xbec3451e	-0.3813867
84	0xbe810418	-0.25198436
85	0x3e76729a	0.24067155
86	0x3e71b00a	0.2360231
87	0x3dbc83cc	0.09204826
88	0xbd8123b2	-0.063056365
89	0x3eb132c2	0.34609038
90	0xbcf83223	-0.030297345
91	0x3d6e5980	0.058190823
92	0xbca1edc0	-0.019766688
93	0xbec3db5d	-0.38253298
94	0x3de37443	0.111061595
95	0xbe85b865	-0.26117244
96	0xbec1bf97	-0.37841484
97	0x3eaf5b8f	0.3424954
98	0x3ea77cb4	0.32712328
99	0xbe7a7fb9	-0.24462785
100	0x3d91aaea	0.071126774
101	0xbeac5a1e	-0.33662504
102	0xbed3eb66	-0.41390532
103	0xbe8fe686	-0.28105563
104	0xbec3bff3	-0.38232383
105	0xbe662ceb	-0.22478072
106	0x3e86c7c5	0.26324287
107	0x3eb01813	0.34393367
108	0x3df3db5f	0.11907076
109	0xbe296d65	-0.16545637
110	0xbc6d949e	-0.014500765
111	0x3e8fe562	0.28104693
112	0xbc3876fc	-0.011258837
113	0xbebfea1d	-0.37483302
114	0xbebfeea1	-0.37486747
115	0x3dd26353	0.10272851
116	0xbddb257e	-0.107005104
117	0xbea6524f	-0.3248467
118	0x3e9dc10e	0.30811352
119	0x3eac2d38	0.3362825
120	0x3e165b4a	0.14683262
121	0xbe135f84	-0.14391905
122	0x3e1c39ba	0.15256396
123	0x3ee2ca8d	0.4429516
124	0xbdfe5ce9	-0.12420065
125	0x3ebe923f	0.37220952
126	0x3eb972c4	0.36220372
127	0xbeb292ad	-0.3487753
128	0xbea7192e	-0.32636398
129	0x3e2e1616	0.17000613
130	0x3e44a6c7	0.19204246
131	0x3e52a156	0.20569357
132	0xbcadcd5b	-0.021216085
133	0x3d97589b	0.07389947
134	0x3ea62bbe	0.32455248
135	0xbdc40ed3	-0.0957314
136	0x3e9ec3d9	0.31008795
137	0x3df80240	0.12109804
138	0xbc28b11d	-0.010296133
139	0x3ec532c5	0.38515297
140	0x3e910bbe	0.2832927
141	0xbed4c0d1	-0.41553357
142	0xbcfc2ff9	-0.030784594
143	0x3eb36d36	0.3504426
144	0xbe507888	-0.20358479
145	0x3ebf866c	0.37407243
146	0xbe918e34	-0.28428805
147	0x3e34b451	0.1764691
148	0x3e854853	0.26031741
149	0x3d8937a9	0.067000695
150	0x3b611d74	0.003434983
151	0xbe2bbe3c	-0.16771787
152	0xbedb8d94	-0.42881453
153	0xbeb3b478	-0.35098624
154	0xbe8ddc9b	-0.2770737
155	0xbdd0db21	-0.101980455
156	0x3cf7ec55	0.03026406
157	0x3e8be5c6	0.2732374
158	0xbeb6821a	-0.35646135
159	0xbe13100d	-0.14361592
160	0xbc6e8dd8	-0.014560185
161	0x3e7ce50d	0.24696751
162	0xbdd03014	-0.1016542
163	0xbec61ff9	-0.38696268
164	0xbee7a94a	-0.45246345
165	0x3e049683	0.1294804
166	0xbda577e0	-0.08079505
167	0x3ebe7f74	0.37206614
168	0xbe3c4232	-0.18384627
169	0x3edebc13	0.43502864
170	0x3edc5adf	0.4303808
171	0xbeda0d46	-0.42588252
172	0x3e87d6dd	0.26531115
173	0xbe130d9c	-0.1436066
174	0x3de81484	0.11332038
175	0x3e5d83be	0.21632287
176	0xbeb9a6b6	-0.36260003
177	0xbe902acb	-0.28157648
178	0x3e91839a	0.28420717
179	0xbcec571a	-0.028850127
180	0xbd4fbcb8	-0.050717086
181	0xbdfd5bc3	-0.12371018
182	0x3e7146e9	0.23562206
183	0xbd28a116	-0.04116925
184	0x3ecac299	0.3960159
185	0x3cd17a7e	0.025571104
186	0xbea5c648	-0.3237784
187	0xbea7b013	-0.3275152
188	0xbeccacda	-0.39975625
189	0xbed0d0fe	-0.40784448
190	0x3de7e403	0.11322787
191	0xbe92f8ae	-0.28705353
192	0xbda47a3b	-0.08031126
193	0x3dbc1056	0.09182803
194	0xbed2791f	-0.41108033
195	0x3def69e9	0.11690123
196	0x3ec7c6cb	0.39018854
197	0x3e05bbe5	0.13059957
198	0x3edd2a29	0.43196228
199	0xbebc30dc	-0.36756027
200	0xbdf9c5f2	-0.12195958
201	0xbd4ad809	-0.049522433
202	0xbd9ca865	-0.07649306
203	0xbe9d60b5	-0.30737844
204	0x3dfcf40d	0.123512365
205	0xbe504029	-0.20336975
206	0xbe4ae92a	-0.19815508
207	0xbe493449	-0.19648851
208	0x3e3621be	0.17786309
209	0x3dd8107c	0.10550019
210	0x3e69290b	0.22769563
211	0x3cebb249	0.028771536
212	0xbed14606	-0.40873736
213	0xbe634cce	-0.22197267
214	0x3d65f0c7	0.056137826
215	0xbe8e325a	-0.2777279
216	0xbed16ccd	-0.4090332
217	0xbed6111d	-0.4180993
218	0x3dedd3ba	0.11612649
219	0x3d27d851	0.04097778
220	0xbe4f6443	-0.2025309
221	0xbd974676	-0.07386486
222	0xbe808aa0	-0.25105762
223	0xbe6ab94d	-0.22922249
224	0x3ea2fd7a	0.31834012
225	0xbd3df479	-0.046375725
226	0x3ebd6b85	0.36996093
227	0x3ebb879b	0.36626896
228	0x3e20cb2f	0.15702508
229	0x3e2105ed	0.15724917
230	0x3e5bbcea	0.21458784
231	0xbea7316b	-0.3265489
232	0xbe3b1e4d	-0.18273278
233	0x3d731111	0.059342448
234	0x3ed88c68	0.4229462
235	0x3e88c864	0.26715386
236	0x3e3f37aa	0.18673578
237	0xbebc0c69	-0.36728218
238	0x3cdd3891	0.027004512
239	0x3e9a43cc	0.3012985
240	0xbe23c424	-0.1599279
241	0x3ece7ee1	0.40331176
242	0x3eb1a872	0.34698826
243	0x3ea9e48a	0.33182174
244	0xbe1ea56d	-0.15492792
245	0xbdba327d	-0.09091661
246	0x3d9d7476	0.07688229
247	0x3e6aabd5	0.22917111
248	0xbedd5955	-0.43232217
249	0x3e2b755e	0.16743991

attention.W_v.weight f4 [5, 5]
0	0x3ed18969	0.40925148
1	0xbc73e037	-0.014885
2	0x3e213a02	0.15744784
3	0xbe6978cd	-0.22799988
4	0xbdcc69ca	-0.09981115
5	0xbb1c3865	-0.0023837325
6	0x3e0e1556	0.13875327
7	0xbdc2e7ce	-0.095168695
8	0x3e96f2f3	0.2948223
9	0xbe83df56	-0.2575633
10	0x3ea8afb7	0.3294656
11	0xbde5ad10	-0.1121465
12	0x3d8001a7	0.06250315
13	0x3dc46ad7	0.095906906
14	0x3eb83451	0.35977414
15	0xbecd6017	-0.40112373
16	0xbea8b3eb	-0.32949767
17	0x3eeb7fe8	0.45996022
18	0x3dc6cb68	0.097067654
19	0xbe6a3f39	-0.2287568
20	0xbdd46075	-0.1036996
21	0xbc797a45	-0.015226905
22	0x3e9ec056	0.31006116
23	0x3e63bcae	0.22239944
24	0xbd3dd00f	-0.046341

fc1.weight f4 [4, 80]
0	0xbc99c918	-0.018772647
1	0xbdc7242c	-0.09723696
2	0xbdc82a04	-0.09773639
3	0xbdb7083f	-0.0893712
4	0x3d87c77d	0.06629846
5	0x3d85eefe	0.06539725
6	0xbdd098f8	-0.101854265
7	0x3ccbe58d	0.024889732
8	0x3d9e9b5b	0.077444755
9	0x3db9bd84	0.0906935
10	0x3d0a3f4e	0.03375178
11	0x3d3a797f	0.045526024
12	0x3d7b7bf9	0.061397526
13	0x3c7827a7	0.015146173
14	0x3d65d56b	0.056111734
15	0x3d09096f	0.033456262
16	0xbc36714a	-0.011135409
17	0x3dcebb03	0.100942634
18	0x3d8fd682	0.07023336
19	0xbd82cf8f	-0.06387245
20	0xbc10cdd5	-0.008838137
21	0xbd378a45	-0.0448096
22	0xbd970d22	-0.07375552
23	0xbdbc2818	-0.09187335
24	0xbd0cdf29	-0.03439251
25	0x3d6270d3	0.05528338
26	0x3d6e1108	0.05812171
27	0xba8e8340	-0.0010872856
28	0xbdaea630	-0.085277915
29	0xbd9c8b95	-0.07643811
30	0x3db7acc5	0.089685
31	0xbc2865e7	-0.010278202
32	0xbce5de3e	-0.028060075
33	0xbc1292c7	-0.008946127
34	0xbd3b9d95	-0.04580458
35	0x3bd9dce9	0.006648649
36	0x3d7ae335	0.061251838
37	0xbda25bed	-0.0792769
38	0xbda5ba27	-0.08092146
39	0xbd9328cb	-0.07185515
40	0x3d1a597a	0.037682988
41	0xbccb9da2	-0.024855439
42	0xbd8f8828	-0.070083916
43	0x3dc1ae20	0.0945704
44	0xbd004ad4	-0.03132136
45	0x3d5044d7	0.0508469
46	0x3d8497e3	0.064742826
47	0xbde57a0f	-0.112049215
48	0xbda8a3c7	-0.08234363
49	0x3dae250d	0.085031606
50	0x3d746ee8	0.05967608
51	0xbd92b963	-0.07164266
52	0x3d7c656d	0.061620165
53	0x3c5a5e23	0.013328108
54	0xbddf9756	-0.10917537
55	0xbcd88960	-0.026432693
56	0xbde3c064	-0.1112068
57	0xbdb567d4	-0.08857694
58	0x3cc62aec	0.024190389
59	0xbdb9200f	-0.09039318
60	0x3b9da216	0.004810582
61	0x3dbc70ed	0.092012264
62	0xbc359caf	-0.01108472
63	0xbc941999	-0.018078612
64	0x3da28c7d	0.07936952
65	0x3db96606	0.090526626
66	0x3dd1b882	0.1024027
67	0x3d20b73c	0.039237246
68	0x3d993479	0.074807115
69	0xbc439635	-0.011937668
70	0xbdc33336	-0.09531252
71	0xbd997c0e	-0.07494365
72	0xbdc60d8f	-0.09670555
73	0xbdc7be48	-0.0975309
74	0x3d81f8ae	0.0634626
75	0x3d398559	0.045293186
76	0xbbab15f9	-0.005221125
77	0x3c0be850	0.008539274
78	0xbdc00838	-0.093765676
79	0x3d0606ea	0.032721438
80	0xbba5876d	-0.0050515444
81	0xbcb05066	-0.021522712
82	0xbda014e3	-0.07816484
83	0xbd37dd6e	-0.044888906
84	0x3d92f055	0.07174746
85	0xbd691d83	-0.05691291
86	0x3da906ab	0.08253225
87	0xbdef5667	-0.11686402
88	0xbca384f6	-0.019960862
89	0xbdc0f88b	-0.09422406
90	0x3dc8c5c5	0.098033465
91	0xbd8fc0af	-0.07019173
92	0xbd0f2510	-0.034947455
93	0x3bf90090	0.007598944
94	0x3d83aef2	0.064298525
95	0xbd65637e	-0.056003086
96	0xbd5509e9	-0.052011404
97	0x3cbc57f5	0.02299116
98	0x3de45f1a	0.11150952
99	0x3cc21ea3	0.02369625
100	0xbde03245	-0.10947088
101	0xbd58545d	-0.05281483
102	0xbd7f3b57	-0.06231245
103	0x3da01508	0.078165114
104	0x3db1e4c5	0.086862125
105	0xbdb00dd7	-0.0859639
106	0xbd83d7d4	-0.0643765
107	0xbdf2a1b6	-0.1184725
108	0xbdb91505	-0.09037212
109	0xbd007a31	-0.03136653
110	0xbd05771a	-0.032584287
111	0xbd30ebfb	-0.0431938
112	0xbd5f0cea	-0.054455675
113	0x3d86bdba	0.06579156
114	0xbdc2689a	-0.094926074
115	0x3dce72bb	0.10080477
116	0x3dbffd37	0.09374469
117	0x3c8ff25f	0.017571626
118	0x3ce84f4b	0.028358122
119	0xbda5b4fa	-0.08091159
120	0xbdbf111d	-0.09329436
121	0xbc1f52d8	-0.009724341
122	0xbdb82ab4	-0.0899252
123	0x3d713933	0.05889244
124	0xbc23bf86	-0.009994393
125	0x3d94e91d	0.07271025
126	0xbdc3d193	-0.095614575
127	0x3d272b10	0.040812552
128	0xbd49f20f	-0.04930311
129	0x3d8cc74a	0.06873949
130	0xbdad9e19	-0.0847742
131	0x3cc27558	0.023737594
132	0x3d2f8c20	0.042858243
133	0x3dcefc0a	0.101066664
134	0xbdba0e82	-0.090847984
135	0x3ba16f37	0.004926588
136	0x3d9941bc	0.07483241
137	0xbd6ae70b	-0.057349246
138	0x3da24f8c	0.079253286
139	0x3dcfb3d0	0.101417184
140	0x3d82b0f4	0.063814074
141	0xbdca0563	-0.09864309
142	0x3c7be0f9	0.015373462
143	0xbcd3c227	-0.025849415
144	0xbdaf1ec6	-0.085507914
145	0xbd7bfa46	-0.061517976
146	0x3d4176e7	0.047232535
147	0xbcbd63a4	-0.023118801
148	0x3d572ab9	0.052530978
149	0x3d555918	0.05208692
150	0xbd97efd8	-0.074187934
151	0xbd985423	-0.07437923
152	0xbdd83c79	-0.10558409
153	0x3ccca629	0.024981575
154	0xbdaf7250	-0.08566725
155	0x3dc90431	0.098152526
156	0x3c48d865	0.012258624
157	0x3d8e93e8	0.06961805
158	0xbcbfdedd	-0.0234217
159	0x3c89624b	0.016770503
160	0xbdc0e476	-0.094185755
161	0xbda3d97d	-0.08000467
162	0xbda8472e	-0.082167014
163	0x3d3bc8c4	0.045845762
164	0xbc40ed4c	-0.011775326
165	0x3d856a4e	0.06514417
166	0x3daf06a8	0.085461915
167	0x3cd418d9	0.025890755
168	0xbc83f757	-0.016109152
169	0xbd966d3d	-0.07345054
170	0x3c0d97bc	0.008642133
171	0x3d32793f	0.04357266
172	0x3dcd0c5e	0.100121245
173	0xbcb9ce4f	-0.022681383
174	0x3ddcd0ea	0.10782035
175	0x3daf38ee	0.0855578
176	0x3d41d31c	0.04732047
177	0x3d50fa84	0.05102016
178	0xbcd73399	-0.02626972
179	0x3d67aa42	0.056558855
180	0xbcd57670	-0.026057452
181	0x3de3cdca	0.111232355
182	0xbd46428b	-0.048403304
183	0x3d3abb9b	0.04558907
184	0x3de4ff42	0.11181499
185	0xbca7814b	-0.020447394
186	0x3bc177b8	0.005904164
187	0x3cfc6e39	0.030814277
188	0xbdb44ec4	-0.08804086
189	0xbd1ebb53	-0.038752865
190	0x3dd3af95	0.10336224
191	0xbb8bc3ee	-0.0042653
192	0x3ddaedf4	0.10689917
193	0xbcbdb4ed	-0.023157561
194	0xbd4f5427	-0.050617363
195	0x3c6c6c02	0.014430048
196	0xbd7fa850	-0.062416375
197	0x3cccaad9	0.02498381
198	0x3da54e7e	0.08071612
199	0x3bb24ed4	0.005441526
200	0xbd9e4bdd	-0.077293135
201	0xbcb207e9	-0.021732287
202	0x3dee6d98	0.11641997
203	0x3d62ab1d	0.055338968
204	0xbbb80ebb	-0.0056169904
205	0x3b748982	0.0037313406
206	0xbb1805fe	-0.002319693
207	0xbcbe15dd	-0.023203785
208	0xbca9e339	-0.020738231
209	0xbd94519e	-0.0724213
210	0x3d62dcb6	0.055386268
211	0xbdaeacad	-0.08529029
212	0xbdb813fa	-0.08988185
213	0xbba59cfc	-0.0050541144
214	0x3d2971be	0.04136824
215	0x3d8c08ac	0.068375915
216	0xbd672184	-0.056428447
217	0x3d59cf41	0.05317617
218	0x3d9c1521	0.076212175
219	0xbd36a8ba	-0.044594504
220	0x3dda2087	0.10650735
221	0xbad88195	-0.0016518111
222	0x3cd14b86	0.025548708
223	0x3ce67894	0.028133668
224	0x3bc044b7	0.0058675664
225	0xbda2368d	-0.07920561
226	0x3db0455d	0.0860698
227	0xbd5920f1	-0.05300993
228	0xbdb879c7	-0.09007602
229	0xbd94870f	-0.07252323
230	0xba571f5a	-0.0008206271
231	0x3dd644bf	0.10462331
232	0x3d6a147e	0.05714845
233	0x3cc08ef4	0.023505665
234	0x3d1ff09c	0.039047822
235	0xbd081f34	-0.033232883
236	0x3d8c85b1	0.06861437
237	0x3d88773c	0.06663367
238	0x3b971480	0.004610598
239	0x3c842ab9	0.016133653
240	0x3da4e192	0.080508366
241	0xbd1e52e1	-0.03865326
242	0xbdc81474	-0.09769526
243	0xbd169d9a	-0.036771394
244	0x3d53438d	0.051578093
245	0x3cbd2cf0	0.023092717
246	0xbdfadeb5	-0.12249509
247	0x3d1e154c	0.03859453
248	0xbd130018	-0.03588876
249	0xbc24a5e6	-0.010049319
250	0xbda44e24	-0.08022717
251	0xbdcd1383	-0.10013487
252	0xbd506235	-0.050874908
253	0x3d00a90a	0.03141121
254	0xbc83c663	-0.01608581
255	0xbce826b2	-0.028338764

fc1.bias f4 [4]
0	0xbc8acb49	-0.016942637
1	0x3c501dab	0.012702386
2	0xbcef2956	-0.029194515
3	0xbc5020b3	-0.012703109
