interspeech/Scalp-EEG/analysis/python/EEG_code/model_3D/64_pNB_EEG_CNN_baseline/sb0/fold0.ckpt (torch, 22471 bytes, 6 tensors)

conv_layer.weight f4 [5, 1, 17, 59]
0	0xbe382be6	-0.17985496
1	0x3e40621c	0.18787426
2	0x3d1b42cd	0.037905503
3	0xbe8b5a8c	-0.2721752
4	0xbebf7a24	-0.37397873
5	0x3c458f57	0.012058101
6	0xbdef74cb	-0.11692198
7	0x3eca88de	0.39557546
8	0xbd8c273e	-0.06843422
9	0xbe8838ac	-0.26605737
10	0x3df3b086	0.118989035
11	0x3e2b6626	0.16738185
12	0x3e9db717	0.3080375
13	0xbd49e77a	-0.04929302
14	0xbdd2ad71	-0.102869876
15	0xbb70ad2a	-0.0036724308
16	0x3eb4c4ed	0.35306492
17	0x3ec3deb6	0.38255852
18	0x3e340236	0.17578968
19	0xbeb2c046	-0.34912318
20	0x3e565b3b	0.20933239
21	0x3e159604	0.14608008
22	0x3e6428b2	0.22281149
23	0x3e41a541	0.18910696
24	0xbd0bcadf	-0.03412902
25	0xbf194621	-0.59872633
26	0xbf024dd5	-0.5090001
27	0xbe1b02c3	-0.15137772
28	0xbe24a713	-0.16079359
29	0x3c083096	0.008312365
30	0xbedc98cc	-0.43085325
31	0xbeddf942	-0.4335423
32	0xbbc80a74	-0.0061047617
33	0x3c7de2c9	0.015495964
34	0x3eb38cc9	0.35068348
35	0xbecf94ed	-0.4054331
36	0x3eceb8a6	0.4037525
37	0x3e49bcad	0.1970088
38	0x3ecee6db	0.40410504
39	0xbdd929e3	-0.106036924
40	0x3d550658	0.052008003
41	0x3d0e870e	0.034796767
42	0x3e7eca65	0.24881895
43	0x3f0c840f	0.54889005
44	0x3e91e17d	0.28492346
45	0xbe70371f	-0.23458527
46	0x3eb4cce0	0.35312557
47	0x3e1d9bf3	0.15391521
48	0xbe4ccc91	-0.19999911
49	0xbde57819	-0.112045474
50	0xbe8e90e1	-0.2784491
51	0x3ee818d7	0.4533145
52	0xbc4b57f2	-0.0124111045
53	0xbda7b4f4	-0.08188811
54	0xbe259731	-0.16170956
55	0x3decec8b	0.115685545
56	0xbeb07730	-0.34465933
57	0xbe865c76	-0.26242417
58	0xbed626da	-0.41826516
59	0xbc125ec5	-0.008933728
60	0xbd0695ef	-0.03285783
61	0xbc58624e	-0.013207031
62	0x3d735539	0.059407447
63	0x3d0faa64	0.035074607
64	0x3d862c95	0.06551472
65	0x3cc9e7d6	0.02464668
66	0xbcc85936	-0.024456602
67	0xbd05756a	-0.032582678
68	0xbca516ee	-0.020152535
69	0x3bc44b6d	0.0059904368
70	0x3c180734	0.009279061
71	0x3caa574a	0.020793576
72	0x3d2cd391	0.042193953
73	0xbc9bc35f	-0.019014059
74	0xbc38617e	-0.011253713
75	0xbd6570fb	-0.05601595
76	0x3c9fabde	0.019491132
77	0xbd3465be	-0.04404234
78	0x3cb7b96c	0.022427283
79	0xbd652e0b	-0.055952113
80	0xb798adb6	-1.8200702e-05
81	0xbb8680f1	-0.0041047265
82	0xbd59d5e7	-0.05318251
83	0x3cbff82d	0.02343377
84	0x3d530081	0.051514152
85	0x3d74b618	0.05974397
86	0xbbca7726	-0.0061787544
87	0x3d82de7b	0.06390091
88	0xbdd1bf5e	-0.102415785
89	0xbc982b86	-0.018575441
90	0xbd8322e8	-0.06403142
91	0x3d59f97b	0.05321644
92	0xbc803ff6	-0.015655499
93	0x3dfece49	0.124416895
94	0x3dce4a5d	0.100727774
95	0xbb530374	-0.0032198103
96	0x3bf376a1	0.007429913
97	0xbe29b198	-0.16571653
98	0xbc7951f1	-0.01521729
99	0xbc121c2c	-0.0089178495
100	0xbdf4001b	-0.119140826
101	0x3da10f94	0.078642994
102	0xbd07a311	-0.033114497
103	0xbb91c188	-0.0044481196
104	0xbcc77a5b	-0.024350336
105	0xbd0a47b4	-0.033759788
106	0x3d10502a	0.0352327
107	0x3d997da0	0.07494664
108	0xbbceaeac	-0.0063074436
109	0xbd02c494	-0.031925753
110	0xbd30de1e	-0.043180577
111	0xbd5bc06d	-0.05365031
112	0x3ddbb614	0.10728088
113	0x3cc5c998	0.024143979
114	0x3d880a47	0.06642585
115	0xbdd8c3a9	-0.10584194
116	0xbd7669a8	-0.060159355
117	0xbd757e3d	-0.059934843
118	0x3e3c635c	0.18397278
119	0xbe288cb0	-0.16459918
120	0xbc6bd5ea	-0.014394263
121	0x3e9471e8	0.28993154
122	0x3eba107f	0.3634071
123	0x3d93c335	0.07214967
124	0x3dbda4f5	0.09259979
125	0xbeb140e3	-0.34619817
126	0x3c02e0b5	0.007988145
127	0x3e76f2a8	0.24116004
128	0xbddb658c	-0.10712728
129	0xbdb64951	-0.08900703
130	0xbe7f60c9	-0.24939264
131	0x3db43c24	0.088005334
132	0x3d9e0faa	0.077178314
133	0xbd0084ef	-0.031376775
134	0xbeccaa2d	-0.39973584
135	0xbebb4437	-0.3657548
136	0xbe3071cb	-0.17230909
137	0x3ea31c26	0.31857413
138	0xbe389400	-0.18025208
139	0xbd31bcb7	-0.043392863
140	0xbe7d3afe	-0.24729535
141	0xbe54aeb6	-0.20769772
142	0x3be6da8b	0.0070450953
143	0x3f04d021	0.5188008
144	0x3ee690a6	0.45032233
145	0x3deb4861	0.114884146
146	0x3e4a96bf	0.19784068
147	0xbdaf6f28	-0.08566123
148	0x3eee113d	0.46497527
149	0x3ecebff9	0.4038084
150	0x3da43d47	0.080195
151	0xbd8535f6	-0.06504433
152	0xbe59c1f4	-0.21265393
153	0x3ed0c4c7	0.4077513
154	0xbead4681	-0.33842853
155	0xbe216ddc	-0.15764564
156	0xbee70d1c	-0.4512719
157	0x3e162f37	0.14666449
158	0x3cd47df7	0.025938971
159	0xbe2ac5c5	-0.16677006
160	0xbe37bb11	-0.17942454
161	0xbef9e1f4	-0.488052
162	0xbe620d87	-0.22075473
163	0x3e631d37	0.22179113
164	0xbec7b46c	-0.39004838
165	0xbdaacfe4	-0.08340433
166	0x3e37cd39	0.1794938
167	0x3da1a6ec	0.07893166
168	0x3e7f7300	0.24946213
169	0xbeea5f86	-0.45776004
170	0xbdb3b5d1	-0.08774913
171	0x3deafdb2	0.1147417
172	0x3e438f5f	0.1909766
173	0xbdaedf4f	-0.085386865
174	0x3e793f36	0.2434052
175	0x3e28a992	0.16470936
176	0x3ec5fe8b	0.38670763
177	0x3e1e58bd	0.15463538
178	0xbdf365a2	-0.11884619
179	0xbc846fec	-0.01616665
180	0x3e938b93	0.28817424
181	0x3ec0fe3b	0.37693962
182	0x3d004283	0.03131343
183	0x3df86d04	0.12130168
184	0xbea9b328	-0.33144498
185	0x3ca907ab	0.02063354
186	0x3e42c03d	0.19018646
187	0xbd968e8a	-0.07351406
188	0xbd626eb7	-0.055281367
189	0xbe8041df	-0.25050256
190	0x3cea4afe	0.028600212
191	0x3de2bd8e	0.11071311
192	0xbd859e7f	-0.06524371
193	0xbed3c7b4	-0.413633
194	0xbe9f9e62	-0.31175524
195	0xbe0a24d2	-0.13490608
196	0x3e962ccb	0.2933105
197	0xbdb178b6	-0.08665602
198	0xbd2dfa41	-0.04247499
199	0xbe0e625f	-0.13904713
200	0xbe2477bb	-0.16061299
201	0xbc97a223	-0.01850993
202	0x3f02e4e5	0.51130515
203	0x3eb800c6	0.3593809
204	0x3de4f008	0.11178595
205	0x3ddfa99f	0.109210245
206	0x3db4f75c	0.088362426
207	0x3ec0c76c	0.37652147
208	0x3eade313	0.33962306
209	0xbc98bed2	-0.018645678
210	0xbd176e12	-0.036970206
211	0xbe84c3e0	-0.2593069
212	0x3e8cf432	0.27530056
213	0xbea8b0ec	-0.3294748
214	0xbdfb5be7	-0.12273388
215	0xbe938a07	-0.28816244
216	0x3e2f0698	0.17092359
217	0x3cf57426	0.02996261
218	0xbdb62b9b	-0.08895036
219	0xbe757f47	-0.23974334
220	0xbee9774a	-0.45598823
221	0xbe0089fb	-0.12552635
222	0x3e1c54f8	0.15266788
223	0xbec53d32	-0.3852325
224	0xbe30c71d	-0.17263456
225	0x3e19316d	0.1496026
226	0x3db6368d	0.088971235
227	0x3e984862	0.29742724
228	0xbed24b9a	-0.41073304
229	0xbd5aeb81	-0.05344725
230	0x3d20033e	0.039065592
231	0x3dcb7f89	0.09936435
232	0xbdf3a40f	-0.11896526
233	0x3e621319	0.22077598
234	0x3e3a1337	0.18171392
235	0x3eba0486	0.36331576
236	0x3ca5a583	0.020220524
237	0x3d8ffe30	0.07030904
238	0x3d8dcc2b	0.069237076
239	0xbde7f112	-0.113252774
240	0xbd631112	-0.0554362
241	0xbce0c27c	-0.027436487
242	0x3db5e3e2	0.08881356
243	0x3dc932bd	0.09824131
244	0xbd20eb9f	-0.039287206
245	0xbe30f321	-0.17280246
246	0x3d02124f	0.03175574
247	0x3c6f73ee	0.014615042
248	0x3dc6e899	0.09712333
249	0xbd8ed60e	-0.069744214
250	0xbd457ce0	-0.048214793
251	0xbd488598	-0.04895553
252	0x3e456dae	0.1928012
253	0x3e0ed26b	0.13947456
254	0x3df4a743	0.11945965
255	0xbe23f411	-0.16011073

conv_layer.bias f4 [5]
0	0xbec3b571	-0.38224366
1	0x3df20bce	0.11818658
2	0x3de38e4a	0.11111124
3	0xbedd8e91	-0.43272832
4	0x3e8d7f80	0.27636337

fc1.weight f4 [5, 5]
0	0xbea94dc0	-0.3306713
1	0xbdfb06ee	-0.12257181
2	0xbeb928cd	-0.3616394
3	0x3ea34417	0.31887886
4	0xbebc7679	-0.36809137
5	0x3e1fe12a	0.15613237
6	0xbe0b7293	-0.13617925
7	0xbec4eef0	-0.38463545
8	0xbe5f9093	-0.21832494
9	0xbed5a9e3	-0.41731176
10	0x3f9337a5	1.1501356
11	0xbf047f23	-0.51756495
12	0xbf01f24e	-0.5076035
13	0x3f6f2720	0.93419075
14	0xbe02c49e	-0.12770316
15	0xbf4d4bd6	-0.8019384
16	0x3daedf36	0.08538668
17	0x3db71791	0.08940042
18	0xbf94b96e	-1.1619089
19	0x3ef89486	0.48550814
20	0x3dc410a7	0.09573489
21	0xbeb3a29e	-0.35085005
22	0xbe850ee9	-0.25987938
23	0xbeb2d25e	-0.34926122
24	0x3dad408b	0.08459576

fc1.bias f4 [5]
0	0x3d5fa4e9	0.05460063
1	0xbeadee3e	-0.33970827
2	0xbf027747	-0.5096325
3	0x3eb84c82	0.3599587
4	0x3e6fc98d	0.2341673

fc2.weight f4 [4, 5]
0	0xbeb3e6a2	-0.35136896
1	0xbd0cc7db	-0.034370285
2	0x3f497dd5	0.7870763
3	0xbf7e76bf	-0.9939994
4	0xbde7802b	-0.11303743
5	0x3eb7f528	0.35929227
6	0x3ec059ac	0.37568414
7	0xbe324bd5	-0.1741174
8	0xbd99c3f2	-0.07508077
9	0x3d830e88	0.06399256
10	0xbe28eff1	-0.1649778
11	0x3ddda38f	0.10822212
12	0xbf1431f9	-0.5788875
13	0x3f2ec533	0.6826965
14	0xbea8ef85	-0.3299524
15	0xbe9f7640	-0.31144905
16	0x3ad2f2a3	0.001609404
17	0xbf19dcb0	-0.6010237
18	0x3f8053d0	1.0025578
19	0x3ea4a18d	0.32154503

fc2.bias f4 [4]
0	0xbbb5b832	-0.0055456394
1	0xbec2357c	-0.3793143
2	0x3d510e2e	0.051038913
3	0xbee510cc	-0.44739377
